#loc0 = loc(unknown)
module  {
  func @graph(%arg0: tensor<768xf32> {tf.aliasing_output = 819 : i64, tf.resource_name = "state.model.ln_f.bias"} loc(unknown), %arg1: tensor<768xf32> {tf.aliasing_output = 814 : i64, tf.resource_name = "state.model.ln_f.weight"} loc(unknown), %arg2: tensor<768x3072xf32> {tf.aliasing_output = 309 : i64, tf.resource_name = "state.model.decoder.9.ffn.proj.weight"} loc(unknown), %arg3: tensor<3072x768xf32> {tf.aliasing_output = 304 : i64, tf.resource_name = "state.model.decoder.9.ffn.fc.weight"} loc(unknown), %arg4: tensor<768xf32> {tf.aliasing_output = 799 : i64, tf.resource_name = "state.model.decoder.9.ln_2.bias"} loc(unknown), %arg5: tensor<768xf32> {tf.aliasing_output = 794 : i64, tf.resource_name = "state.model.decoder.9.ln_2.weight"} loc(unknown), %arg6: tensor<768x768xf32> {tf.aliasing_output = 299 : i64, tf.resource_name = "state.model.decoder.9.attn.proj_output.weight"} loc(unknown), %arg7: tensor<768x768xf32> {tf.aliasing_output = 294 : i64, tf.resource_name = "state.model.decoder.9.attn.proj_v.weight"} loc(unknown), %arg8: tensor<768xf32> {tf.aliasing_output = 789 : i64, tf.resource_name = "state.model.decoder.9.ln_1.bias"} loc(unknown), %arg9: tensor<768xf32> {tf.aliasing_output = 784 : i64, tf.resource_name = "state.model.decoder.9.ln_1.weight"} loc(unknown), %arg10: tensor<768x3072xf32> {tf.aliasing_output = 279 : i64, tf.resource_name = "state.model.decoder.8.ffn.proj.weight"} loc(unknown), %arg11: tensor<3072x768xf32> {tf.aliasing_output = 274 : i64, tf.resource_name = "state.model.decoder.8.ffn.fc.weight"} loc(unknown), %arg12: tensor<768xf32> {tf.aliasing_output = 749 : i64, tf.resource_name = "state.model.decoder.8.ln_2.bias"} loc(unknown), %arg13: tensor<768xf32> {tf.aliasing_output = 744 : i64, tf.resource_name = "state.model.decoder.8.ln_2.weight"} loc(unknown), %arg14: tensor<768x768xf32> {tf.aliasing_output = 269 : i64, tf.resource_name = "state.model.decoder.8.attn.proj_output.weight"} loc(unknown), %arg15: tensor<768x768xf32> {tf.aliasing_output = 264 : i64, tf.resource_name = "state.model.decoder.8.attn.proj_v.weight"} loc(unknown), %arg16: tensor<768xf32> {tf.aliasing_output = 739 : i64, tf.resource_name = "state.model.decoder.8.ln_1.bias"} loc(unknown), %arg17: tensor<768xf32> {tf.aliasing_output = 734 : i64, tf.resource_name = "state.model.decoder.8.ln_1.weight"} loc(unknown), %arg18: tensor<768x3072xf32> {tf.aliasing_output = 249 : i64, tf.resource_name = "state.model.decoder.7.ffn.proj.weight"} loc(unknown), %arg19: tensor<3072x768xf32> {tf.aliasing_output = 244 : i64, tf.resource_name = "state.model.decoder.7.ffn.fc.weight"} loc(unknown), %arg20: tensor<768xf32> {tf.aliasing_output = 699 : i64, tf.resource_name = "state.model.decoder.7.ln_2.bias"} loc(unknown), %arg21: tensor<768xf32> {tf.aliasing_output = 694 : i64, tf.resource_name = "state.model.decoder.7.ln_2.weight"} loc(unknown), %arg22: tensor<768x768xf32> {tf.aliasing_output = 239 : i64, tf.resource_name = "state.model.decoder.7.attn.proj_output.weight"} loc(unknown), %arg23: tensor<768x768xf32> {tf.aliasing_output = 234 : i64, tf.resource_name = "state.model.decoder.7.attn.proj_v.weight"} loc(unknown), %arg24: tensor<768xf32> {tf.aliasing_output = 689 : i64, tf.resource_name = "state.model.decoder.7.ln_1.bias"} loc(unknown), %arg25: tensor<768xf32> {tf.aliasing_output = 684 : i64, tf.resource_name = "state.model.decoder.7.ln_1.weight"} loc(unknown), %arg26: tensor<768x3072xf32> {tf.aliasing_output = 219 : i64, tf.resource_name = "state.model.decoder.6.ffn.proj.weight"} loc(unknown), %arg27: tensor<3072x768xf32> {tf.aliasing_output = 214 : i64, tf.resource_name = "state.model.decoder.6.ffn.fc.weight"} loc(unknown), %arg28: tensor<768xf32> {tf.aliasing_output = 649 : i64, tf.resource_name = "state.model.decoder.6.ln_2.bias"} loc(unknown), %arg29: tensor<768xf32> {tf.aliasing_output = 644 : i64, tf.resource_name = "state.model.decoder.6.ln_2.weight"} loc(unknown), %arg30: tensor<768x768xf32> {tf.aliasing_output = 209 : i64, tf.resource_name = "state.model.decoder.6.attn.proj_output.weight"} loc(unknown), %arg31: tensor<768x768xf32> {tf.aliasing_output = 204 : i64, tf.resource_name = "state.model.decoder.6.attn.proj_v.weight"} loc(unknown), %arg32: tensor<768xf32> {tf.aliasing_output = 639 : i64, tf.resource_name = "state.model.decoder.6.ln_1.bias"} loc(unknown), %arg33: tensor<768xf32> {tf.aliasing_output = 634 : i64, tf.resource_name = "state.model.decoder.6.ln_1.weight"} loc(unknown), %arg34: tensor<768x3072xf32> {tf.aliasing_output = 189 : i64, tf.resource_name = "state.model.decoder.5.ffn.proj.weight"} loc(unknown), %arg35: tensor<3072x768xf32> {tf.aliasing_output = 184 : i64, tf.resource_name = "state.model.decoder.5.ffn.fc.weight"} loc(unknown), %arg36: tensor<768xf32> {tf.aliasing_output = 599 : i64, tf.resource_name = "state.model.decoder.5.ln_2.bias"} loc(unknown), %arg37: tensor<768xf32> {tf.aliasing_output = 594 : i64, tf.resource_name = "state.model.decoder.5.ln_2.weight"} loc(unknown), %arg38: tensor<768x768xf32> {tf.aliasing_output = 179 : i64, tf.resource_name = "state.model.decoder.5.attn.proj_output.weight"} loc(unknown), %arg39: tensor<768x768xf32> {tf.aliasing_output = 174 : i64, tf.resource_name = "state.model.decoder.5.attn.proj_v.weight"} loc(unknown), %arg40: tensor<768xf32> {tf.aliasing_output = 589 : i64, tf.resource_name = "state.model.decoder.5.ln_1.bias"} loc(unknown), %arg41: tensor<768xf32> {tf.aliasing_output = 584 : i64, tf.resource_name = "state.model.decoder.5.ln_1.weight"} loc(unknown), %arg42: tensor<768x3072xf32> {tf.aliasing_output = 159 : i64, tf.resource_name = "state.model.decoder.4.ffn.proj.weight"} loc(unknown), %arg43: tensor<3072x768xf32> {tf.aliasing_output = 154 : i64, tf.resource_name = "state.model.decoder.4.ffn.fc.weight"} loc(unknown), %arg44: tensor<768xf32> {tf.aliasing_output = 549 : i64, tf.resource_name = "state.model.decoder.4.ln_2.bias"} loc(unknown), %arg45: tensor<768xf32> {tf.aliasing_output = 544 : i64, tf.resource_name = "state.model.decoder.4.ln_2.weight"} loc(unknown), %arg46: tensor<768x768xf32> {tf.aliasing_output = 149 : i64, tf.resource_name = "state.model.decoder.4.attn.proj_output.weight"} loc(unknown), %arg47: tensor<768x768xf32> {tf.aliasing_output = 144 : i64, tf.resource_name = "state.model.decoder.4.attn.proj_v.weight"} loc(unknown), %arg48: tensor<768xf32> {tf.aliasing_output = 539 : i64, tf.resource_name = "state.model.decoder.4.ln_1.bias"} loc(unknown), %arg49: tensor<768xf32> {tf.aliasing_output = 534 : i64, tf.resource_name = "state.model.decoder.4.ln_1.weight"} loc(unknown), %arg50: tensor<768x3072xf32> {tf.aliasing_output = 129 : i64, tf.resource_name = "state.model.decoder.3.ffn.proj.weight"} loc(unknown), %arg51: tensor<3072x768xf32> {tf.aliasing_output = 124 : i64, tf.resource_name = "state.model.decoder.3.ffn.fc.weight"} loc(unknown), %arg52: tensor<768xf32> {tf.aliasing_output = 499 : i64, tf.resource_name = "state.model.decoder.3.ln_2.bias"} loc(unknown), %arg53: tensor<768xf32> {tf.aliasing_output = 494 : i64, tf.resource_name = "state.model.decoder.3.ln_2.weight"} loc(unknown), %arg54: tensor<768x768xf32> {tf.aliasing_output = 119 : i64, tf.resource_name = "state.model.decoder.3.attn.proj_output.weight"} loc(unknown), %arg55: tensor<768x768xf32> {tf.aliasing_output = 114 : i64, tf.resource_name = "state.model.decoder.3.attn.proj_v.weight"} loc(unknown), %arg56: tensor<768xf32> {tf.aliasing_output = 489 : i64, tf.resource_name = "state.model.decoder.3.ln_1.bias"} loc(unknown), %arg57: tensor<768xf32> {tf.aliasing_output = 484 : i64, tf.resource_name = "state.model.decoder.3.ln_1.weight"} loc(unknown), %arg58: tensor<768x3072xf32> {tf.aliasing_output = 99 : i64, tf.resource_name = "state.model.decoder.2.ffn.proj.weight"} loc(unknown), %arg59: tensor<3072x768xf32> {tf.aliasing_output = 94 : i64, tf.resource_name = "state.model.decoder.2.ffn.fc.weight"} loc(unknown), %arg60: tensor<768xf32> {tf.aliasing_output = 449 : i64, tf.resource_name = "state.model.decoder.2.ln_2.bias"} loc(unknown), %arg61: tensor<768xf32> {tf.aliasing_output = 444 : i64, tf.resource_name = "state.model.decoder.2.ln_2.weight"} loc(unknown), %arg62: tensor<768x768xf32> {tf.aliasing_output = 89 : i64, tf.resource_name = "state.model.decoder.2.attn.proj_output.weight"} loc(unknown), %arg63: tensor<768x768xf32> {tf.aliasing_output = 84 : i64, tf.resource_name = "state.model.decoder.2.attn.proj_v.weight"} loc(unknown), %arg64: tensor<768xf32> {tf.aliasing_output = 439 : i64, tf.resource_name = "state.model.decoder.2.ln_1.bias"} loc(unknown), %arg65: tensor<768xf32> {tf.aliasing_output = 434 : i64, tf.resource_name = "state.model.decoder.2.ln_1.weight"} loc(unknown), %arg66: tensor<768x3072xf32> {tf.aliasing_output = 69 : i64, tf.resource_name = "state.model.decoder.1.ffn.proj.weight"} loc(unknown), %arg67: tensor<3072x768xf32> {tf.aliasing_output = 64 : i64, tf.resource_name = "state.model.decoder.1.ffn.fc.weight"} loc(unknown), %arg68: tensor<768xf32> {tf.aliasing_output = 399 : i64, tf.resource_name = "state.model.decoder.1.ln_2.bias"} loc(unknown), %arg69: tensor<768xf32> {tf.aliasing_output = 394 : i64, tf.resource_name = "state.model.decoder.1.ln_2.weight"} loc(unknown), %arg70: tensor<768x768xf32> {tf.aliasing_output = 59 : i64, tf.resource_name = "state.model.decoder.1.attn.proj_output.weight"} loc(unknown), %arg71: tensor<768x768xf32> {tf.aliasing_output = 54 : i64, tf.resource_name = "state.model.decoder.1.attn.proj_v.weight"} loc(unknown), %arg72: tensor<768xf32> {tf.aliasing_output = 389 : i64, tf.resource_name = "state.model.decoder.1.ln_1.bias"} loc(unknown), %arg73: tensor<768xf32> {tf.aliasing_output = 384 : i64, tf.resource_name = "state.model.decoder.1.ln_1.weight"} loc(unknown), %arg74: tensor<768x3072xf32> {tf.aliasing_output = 39 : i64, tf.resource_name = "state.model.decoder.0.ffn.proj.weight"} loc(unknown), %arg75: tensor<3072x768xf32> {tf.aliasing_output = 34 : i64, tf.resource_name = "state.model.decoder.0.ffn.fc.weight"} loc(unknown), %arg76: tensor<768xf32> {tf.aliasing_output = 349 : i64, tf.resource_name = "state.model.decoder.0.ln_2.bias"} loc(unknown), %arg77: tensor<768xf32> {tf.aliasing_output = 344 : i64, tf.resource_name = "state.model.decoder.0.ln_2.weight"} loc(unknown), %arg78: tensor<768x768xf32> {tf.aliasing_output = 29 : i64, tf.resource_name = "state.model.decoder.0.attn.proj_output.weight"} loc(unknown), %arg79: tensor<768x768xf32> {tf.aliasing_output = 24 : i64, tf.resource_name = "state.model.decoder.0.attn.proj_v.weight"} loc(unknown), %arg80: tensor<768xf32> {tf.aliasing_output = 339 : i64, tf.resource_name = "state.model.decoder.0.ln_1.bias"} loc(unknown), %arg81: tensor<768xf32> {tf.aliasing_output = 334 : i64, tf.resource_name = "state.model.decoder.0.ln_1.weight"} loc(unknown), %arg82: tensor<2048x768xf32> {tf.aliasing_output = 9 : i64, tf.resource_name = "state.model.wpe.weight"} loc(unknown), %arg83: tensor<120x2048xi32> {cs.input_name = "input_0"} loc(unknown), %arg84: tensor<50257x768xf32> {tf.aliasing_output = 4 : i64, tf.resource_name = "state.model.lm_head.weight"} loc(unknown), %arg85: tensor<768xf32> {tf.aliasing_output = 324 : i64, tf.resource_name = "state.model.decoder.0.attn.proj_v.bias"} loc(unknown), %arg86: tensor<768x768xf32> {tf.aliasing_output = 19 : i64, tf.resource_name = "state.model.decoder.0.attn.proj_k.weight"} loc(unknown), %arg87: tensor<768xf32> {tf.aliasing_output = 319 : i64, tf.resource_name = "state.model.decoder.0.attn.proj_k.bias"} loc(unknown), %arg88: tensor<768x768xf32> {tf.aliasing_output = 14 : i64, tf.resource_name = "state.model.decoder.0.attn.proj_q.weight"} loc(unknown), %arg89: tensor<768xf32> {tf.aliasing_output = 314 : i64, tf.resource_name = "state.model.decoder.0.attn.proj_q.bias"} loc(unknown), %arg90: tensor<768xf32> {tf.aliasing_output = 329 : i64, tf.resource_name = "state.model.decoder.0.attn.proj_output.bias"} loc(unknown), %arg91: tensor<3072xf32> {tf.aliasing_output = 354 : i64, tf.resource_name = "state.model.decoder.0.ffn.fc.bias"} loc(unknown), %arg92: tensor<768xf32> {tf.aliasing_output = 359 : i64, tf.resource_name = "state.model.decoder.0.ffn.proj.bias"} loc(unknown), %arg93: tensor<768xf32> {tf.aliasing_output = 374 : i64, tf.resource_name = "state.model.decoder.1.attn.proj_v.bias"} loc(unknown), %arg94: tensor<768x768xf32> {tf.aliasing_output = 49 : i64, tf.resource_name = "state.model.decoder.1.attn.proj_k.weight"} loc(unknown), %arg95: tensor<768xf32> {tf.aliasing_output = 369 : i64, tf.resource_name = "state.model.decoder.1.attn.proj_k.bias"} loc(unknown), %arg96: tensor<768x768xf32> {tf.aliasing_output = 44 : i64, tf.resource_name = "state.model.decoder.1.attn.proj_q.weight"} loc(unknown), %arg97: tensor<768xf32> {tf.aliasing_output = 364 : i64, tf.resource_name = "state.model.decoder.1.attn.proj_q.bias"} loc(unknown), %arg98: tensor<768xf32> {tf.aliasing_output = 379 : i64, tf.resource_name = "state.model.decoder.1.attn.proj_output.bias"} loc(unknown), %arg99: tensor<3072xf32> {tf.aliasing_output = 404 : i64, tf.resource_name = "state.model.decoder.1.ffn.fc.bias"} loc(unknown), %arg100: tensor<768xf32> {tf.aliasing_output = 409 : i64, tf.resource_name = "state.model.decoder.1.ffn.proj.bias"} loc(unknown), %arg101: tensor<768xf32> {tf.aliasing_output = 424 : i64, tf.resource_name = "state.model.decoder.2.attn.proj_v.bias"} loc(unknown), %arg102: tensor<768x768xf32> {tf.aliasing_output = 79 : i64, tf.resource_name = "state.model.decoder.2.attn.proj_k.weight"} loc(unknown), %arg103: tensor<768xf32> {tf.aliasing_output = 419 : i64, tf.resource_name = "state.model.decoder.2.attn.proj_k.bias"} loc(unknown), %arg104: tensor<768x768xf32> {tf.aliasing_output = 74 : i64, tf.resource_name = "state.model.decoder.2.attn.proj_q.weight"} loc(unknown), %arg105: tensor<768xf32> {tf.aliasing_output = 414 : i64, tf.resource_name = "state.model.decoder.2.attn.proj_q.bias"} loc(unknown), %arg106: tensor<768xf32> {tf.aliasing_output = 429 : i64, tf.resource_name = "state.model.decoder.2.attn.proj_output.bias"} loc(unknown), %arg107: tensor<3072xf32> {tf.aliasing_output = 454 : i64, tf.resource_name = "state.model.decoder.2.ffn.fc.bias"} loc(unknown), %arg108: tensor<768xf32> {tf.aliasing_output = 459 : i64, tf.resource_name = "state.model.decoder.2.ffn.proj.bias"} loc(unknown), %arg109: tensor<768xf32> {tf.aliasing_output = 474 : i64, tf.resource_name = "state.model.decoder.3.attn.proj_v.bias"} loc(unknown), %arg110: tensor<768x768xf32> {tf.aliasing_output = 109 : i64, tf.resource_name = "state.model.decoder.3.attn.proj_k.weight"} loc(unknown), %arg111: tensor<768xf32> {tf.aliasing_output = 469 : i64, tf.resource_name = "state.model.decoder.3.attn.proj_k.bias"} loc(unknown), %arg112: tensor<768x768xf32> {tf.aliasing_output = 104 : i64, tf.resource_name = "state.model.decoder.3.attn.proj_q.weight"} loc(unknown), %arg113: tensor<768xf32> {tf.aliasing_output = 464 : i64, tf.resource_name = "state.model.decoder.3.attn.proj_q.bias"} loc(unknown), %arg114: tensor<768xf32> {tf.aliasing_output = 479 : i64, tf.resource_name = "state.model.decoder.3.attn.proj_output.bias"} loc(unknown), %arg115: tensor<3072xf32> {tf.aliasing_output = 504 : i64, tf.resource_name = "state.model.decoder.3.ffn.fc.bias"} loc(unknown), %arg116: tensor<768xf32> {tf.aliasing_output = 509 : i64, tf.resource_name = "state.model.decoder.3.ffn.proj.bias"} loc(unknown), %arg117: tensor<768xf32> {tf.aliasing_output = 524 : i64, tf.resource_name = "state.model.decoder.4.attn.proj_v.bias"} loc(unknown), %arg118: tensor<768x768xf32> {tf.aliasing_output = 139 : i64, tf.resource_name = "state.model.decoder.4.attn.proj_k.weight"} loc(unknown), %arg119: tensor<768xf32> {tf.aliasing_output = 519 : i64, tf.resource_name = "state.model.decoder.4.attn.proj_k.bias"} loc(unknown), %arg120: tensor<768x768xf32> {tf.aliasing_output = 134 : i64, tf.resource_name = "state.model.decoder.4.attn.proj_q.weight"} loc(unknown), %arg121: tensor<768xf32> {tf.aliasing_output = 514 : i64, tf.resource_name = "state.model.decoder.4.attn.proj_q.bias"} loc(unknown), %arg122: tensor<768xf32> {tf.aliasing_output = 529 : i64, tf.resource_name = "state.model.decoder.4.attn.proj_output.bias"} loc(unknown), %arg123: tensor<3072xf32> {tf.aliasing_output = 554 : i64, tf.resource_name = "state.model.decoder.4.ffn.fc.bias"} loc(unknown), %arg124: tensor<768xf32> {tf.aliasing_output = 559 : i64, tf.resource_name = "state.model.decoder.4.ffn.proj.bias"} loc(unknown), %arg125: tensor<768xf32> {tf.aliasing_output = 574 : i64, tf.resource_name = "state.model.decoder.5.attn.proj_v.bias"} loc(unknown), %arg126: tensor<768x768xf32> {tf.aliasing_output = 169 : i64, tf.resource_name = "state.model.decoder.5.attn.proj_k.weight"} loc(unknown), %arg127: tensor<768xf32> {tf.aliasing_output = 569 : i64, tf.resource_name = "state.model.decoder.5.attn.proj_k.bias"} loc(unknown), %arg128: tensor<768x768xf32> {tf.aliasing_output = 164 : i64, tf.resource_name = "state.model.decoder.5.attn.proj_q.weight"} loc(unknown), %arg129: tensor<768xf32> {tf.aliasing_output = 564 : i64, tf.resource_name = "state.model.decoder.5.attn.proj_q.bias"} loc(unknown), %arg130: tensor<768xf32> {tf.aliasing_output = 579 : i64, tf.resource_name = "state.model.decoder.5.attn.proj_output.bias"} loc(unknown), %arg131: tensor<3072xf32> {tf.aliasing_output = 604 : i64, tf.resource_name = "state.model.decoder.5.ffn.fc.bias"} loc(unknown), %arg132: tensor<768xf32> {tf.aliasing_output = 609 : i64, tf.resource_name = "state.model.decoder.5.ffn.proj.bias"} loc(unknown), %arg133: tensor<768xf32> {tf.aliasing_output = 624 : i64, tf.resource_name = "state.model.decoder.6.attn.proj_v.bias"} loc(unknown), %arg134: tensor<768x768xf32> {tf.aliasing_output = 199 : i64, tf.resource_name = "state.model.decoder.6.attn.proj_k.weight"} loc(unknown), %arg135: tensor<768xf32> {tf.aliasing_output = 619 : i64, tf.resource_name = "state.model.decoder.6.attn.proj_k.bias"} loc(unknown), %arg136: tensor<768x768xf32> {tf.aliasing_output = 194 : i64, tf.resource_name = "state.model.decoder.6.attn.proj_q.weight"} loc(unknown), %arg137: tensor<768xf32> {tf.aliasing_output = 614 : i64, tf.resource_name = "state.model.decoder.6.attn.proj_q.bias"} loc(unknown), %arg138: tensor<768xf32> {tf.aliasing_output = 629 : i64, tf.resource_name = "state.model.decoder.6.attn.proj_output.bias"} loc(unknown), %arg139: tensor<3072xf32> {tf.aliasing_output = 654 : i64, tf.resource_name = "state.model.decoder.6.ffn.fc.bias"} loc(unknown), %arg140: tensor<768xf32> {tf.aliasing_output = 659 : i64, tf.resource_name = "state.model.decoder.6.ffn.proj.bias"} loc(unknown), %arg141: tensor<768xf32> {tf.aliasing_output = 674 : i64, tf.resource_name = "state.model.decoder.7.attn.proj_v.bias"} loc(unknown), %arg142: tensor<768x768xf32> {tf.aliasing_output = 229 : i64, tf.resource_name = "state.model.decoder.7.attn.proj_k.weight"} loc(unknown), %arg143: tensor<768xf32> {tf.aliasing_output = 669 : i64, tf.resource_name = "state.model.decoder.7.attn.proj_k.bias"} loc(unknown), %arg144: tensor<768x768xf32> {tf.aliasing_output = 224 : i64, tf.resource_name = "state.model.decoder.7.attn.proj_q.weight"} loc(unknown), %arg145: tensor<768xf32> {tf.aliasing_output = 664 : i64, tf.resource_name = "state.model.decoder.7.attn.proj_q.bias"} loc(unknown), %arg146: tensor<768xf32> {tf.aliasing_output = 679 : i64, tf.resource_name = "state.model.decoder.7.attn.proj_output.bias"} loc(unknown), %arg147: tensor<3072xf32> {tf.aliasing_output = 704 : i64, tf.resource_name = "state.model.decoder.7.ffn.fc.bias"} loc(unknown), %arg148: tensor<768xf32> {tf.aliasing_output = 709 : i64, tf.resource_name = "state.model.decoder.7.ffn.proj.bias"} loc(unknown), %arg149: tensor<768xf32> {tf.aliasing_output = 724 : i64, tf.resource_name = "state.model.decoder.8.attn.proj_v.bias"} loc(unknown), %arg150: tensor<768x768xf32> {tf.aliasing_output = 259 : i64, tf.resource_name = "state.model.decoder.8.attn.proj_k.weight"} loc(unknown), %arg151: tensor<768xf32> {tf.aliasing_output = 719 : i64, tf.resource_name = "state.model.decoder.8.attn.proj_k.bias"} loc(unknown), %arg152: tensor<768x768xf32> {tf.aliasing_output = 254 : i64, tf.resource_name = "state.model.decoder.8.attn.proj_q.weight"} loc(unknown), %arg153: tensor<768xf32> {tf.aliasing_output = 714 : i64, tf.resource_name = "state.model.decoder.8.attn.proj_q.bias"} loc(unknown), %arg154: tensor<768xf32> {tf.aliasing_output = 729 : i64, tf.resource_name = "state.model.decoder.8.attn.proj_output.bias"} loc(unknown), %arg155: tensor<3072xf32> {tf.aliasing_output = 754 : i64, tf.resource_name = "state.model.decoder.8.ffn.fc.bias"} loc(unknown), %arg156: tensor<768xf32> {tf.aliasing_output = 759 : i64, tf.resource_name = "state.model.decoder.8.ffn.proj.bias"} loc(unknown), %arg157: tensor<768xf32> {tf.aliasing_output = 774 : i64, tf.resource_name = "state.model.decoder.9.attn.proj_v.bias"} loc(unknown), %arg158: tensor<768x768xf32> {tf.aliasing_output = 289 : i64, tf.resource_name = "state.model.decoder.9.attn.proj_k.weight"} loc(unknown), %arg159: tensor<768xf32> {tf.aliasing_output = 769 : i64, tf.resource_name = "state.model.decoder.9.attn.proj_k.bias"} loc(unknown), %arg160: tensor<768x768xf32> {tf.aliasing_output = 284 : i64, tf.resource_name = "state.model.decoder.9.attn.proj_q.weight"} loc(unknown), %arg161: tensor<768xf32> {tf.aliasing_output = 764 : i64, tf.resource_name = "state.model.decoder.9.attn.proj_q.bias"} loc(unknown), %arg162: tensor<768xf32> {tf.aliasing_output = 779 : i64, tf.resource_name = "state.model.decoder.9.attn.proj_output.bias"} loc(unknown), %arg163: tensor<3072xf32> {tf.aliasing_output = 804 : i64, tf.resource_name = "state.model.decoder.9.ffn.fc.bias"} loc(unknown), %arg164: tensor<768xf32> {tf.aliasing_output = 809 : i64, tf.resource_name = "state.model.decoder.9.ffn.proj.bias"} loc(unknown), %arg165: tensor<120x2048xi32> {cs.input_name = "input_1"} loc(unknown), %arg166: tensor<50257x768xf32> {tf.aliasing_output = 0 : i64, tf.resource_name = "state.optimizer.state.0.exp_avg"} loc(unknown), %arg167: tensor<50257x768xf32> {tf.aliasing_output = 1 : i64, tf.resource_name = "state.optimizer.state.0.exp_avg_sq"} loc(unknown), %arg168: tensor<f32> {tf.aliasing_output = 2 : i64, tf.resource_name = "state.optimizer.state.0.beta1_power"} loc(unknown), %arg169: tensor<f32> {tf.aliasing_output = 3 : i64, tf.resource_name = "state.optimizer.state.0.beta2_power"} loc(unknown), %arg170: tensor<i64> {tf.aliasing_output = 822 : i64, tf.resource_name = "state.lr_scheduler.0._schedulers.1.last_epoch"} loc(unknown), %arg171: tensor<i64> {tf.aliasing_output = 821 : i64, tf.resource_name = "state.lr_scheduler.0._schedulers.0.last_epoch"} loc(unknown), %arg172: tensor<i64> {tf.aliasing_output = 820 : i64, tf.resource_name = "state.lr_scheduler.0.last_epoch"} loc(unknown), %arg173: tensor<2048x768xf32> {tf.aliasing_output = 5 : i64, tf.resource_name = "state.optimizer.state.1.exp_avg"} loc(unknown), %arg174: tensor<2048x768xf32> {tf.aliasing_output = 6 : i64, tf.resource_name = "state.optimizer.state.1.exp_avg_sq"} loc(unknown), %arg175: tensor<f32> {tf.aliasing_output = 7 : i64, tf.resource_name = "state.optimizer.state.1.beta1_power"} loc(unknown), %arg176: tensor<f32> {tf.aliasing_output = 8 : i64, tf.resource_name = "state.optimizer.state.1.beta2_power"} loc(unknown), %arg177: tensor<768x768xf32> {tf.aliasing_output = 10 : i64, tf.resource_name = "state.optimizer.state.2.exp_avg"} loc(unknown), %arg178: tensor<768x768xf32> {tf.aliasing_output = 11 : i64, tf.resource_name = "state.optimizer.state.2.exp_avg_sq"} loc(unknown), %arg179: tensor<f32> {tf.aliasing_output = 12 : i64, tf.resource_name = "state.optimizer.state.2.beta1_power"} loc(unknown), %arg180: tensor<f32> {tf.aliasing_output = 13 : i64, tf.resource_name = "state.optimizer.state.2.beta2_power"} loc(unknown), %arg181: tensor<768x768xf32> {tf.aliasing_output = 15 : i64, tf.resource_name = "state.optimizer.state.3.exp_avg"} loc(unknown), %arg182: tensor<768x768xf32> {tf.aliasing_output = 16 : i64, tf.resource_name = "state.optimizer.state.3.exp_avg_sq"} loc(unknown), %arg183: tensor<f32> {tf.aliasing_output = 17 : i64, tf.resource_name = "state.optimizer.state.3.beta1_power"} loc(unknown), %arg184: tensor<f32> {tf.aliasing_output = 18 : i64, tf.resource_name = "state.optimizer.state.3.beta2_power"} loc(unknown), %arg185: tensor<768x768xf32> {tf.aliasing_output = 20 : i64, tf.resource_name = "state.optimizer.state.4.exp_avg"} loc(unknown), %arg186: tensor<768x768xf32> {tf.aliasing_output = 21 : i64, tf.resource_name = "state.optimizer.state.4.exp_avg_sq"} loc(unknown), %arg187: tensor<f32> {tf.aliasing_output = 22 : i64, tf.resource_name = "state.optimizer.state.4.beta1_power"} loc(unknown), %arg188: tensor<f32> {tf.aliasing_output = 23 : i64, tf.resource_name = "state.optimizer.state.4.beta2_power"} loc(unknown), %arg189: tensor<768x768xf32> {tf.aliasing_output = 25 : i64, tf.resource_name = "state.optimizer.state.5.exp_avg"} loc(unknown), %arg190: tensor<768x768xf32> {tf.aliasing_output = 26 : i64, tf.resource_name = "state.optimizer.state.5.exp_avg_sq"} loc(unknown), %arg191: tensor<f32> {tf.aliasing_output = 27 : i64, tf.resource_name = "state.optimizer.state.5.beta1_power"} loc(unknown), %arg192: tensor<f32> {tf.aliasing_output = 28 : i64, tf.resource_name = "state.optimizer.state.5.beta2_power"} loc(unknown), %arg193: tensor<3072x768xf32> {tf.aliasing_output = 30 : i64, tf.resource_name = "state.optimizer.state.6.exp_avg"} loc(unknown), %arg194: tensor<3072x768xf32> {tf.aliasing_output = 31 : i64, tf.resource_name = "state.optimizer.state.6.exp_avg_sq"} loc(unknown), %arg195: tensor<f32> {tf.aliasing_output = 32 : i64, tf.resource_name = "state.optimizer.state.6.beta1_power"} loc(unknown), %arg196: tensor<f32> {tf.aliasing_output = 33 : i64, tf.resource_name = "state.optimizer.state.6.beta2_power"} loc(unknown), %arg197: tensor<768x3072xf32> {tf.aliasing_output = 35 : i64, tf.resource_name = "state.optimizer.state.7.exp_avg"} loc(unknown), %arg198: tensor<768x3072xf32> {tf.aliasing_output = 36 : i64, tf.resource_name = "state.optimizer.state.7.exp_avg_sq"} loc(unknown), %arg199: tensor<f32> {tf.aliasing_output = 37 : i64, tf.resource_name = "state.optimizer.state.7.beta1_power"} loc(unknown), %arg200: tensor<f32> {tf.aliasing_output = 38 : i64, tf.resource_name = "state.optimizer.state.7.beta2_power"} loc(unknown), %arg201: tensor<768x768xf32> {tf.aliasing_output = 40 : i64, tf.resource_name = "state.optimizer.state.8.exp_avg"} loc(unknown), %arg202: tensor<768x768xf32> {tf.aliasing_output = 41 : i64, tf.resource_name = "state.optimizer.state.8.exp_avg_sq"} loc(unknown), %arg203: tensor<f32> {tf.aliasing_output = 42 : i64, tf.resource_name = "state.optimizer.state.8.beta1_power"} loc(unknown), %arg204: tensor<f32> {tf.aliasing_output = 43 : i64, tf.resource_name = "state.optimizer.state.8.beta2_power"} loc(unknown), %arg205: tensor<768x768xf32> {tf.aliasing_output = 45 : i64, tf.resource_name = "state.optimizer.state.9.exp_avg"} loc(unknown), %arg206: tensor<768x768xf32> {tf.aliasing_output = 46 : i64, tf.resource_name = "state.optimizer.state.9.exp_avg_sq"} loc(unknown), %arg207: tensor<f32> {tf.aliasing_output = 47 : i64, tf.resource_name = "state.optimizer.state.9.beta1_power"} loc(unknown), %arg208: tensor<f32> {tf.aliasing_output = 48 : i64, tf.resource_name = "state.optimizer.state.9.beta2_power"} loc(unknown), %arg209: tensor<768x768xf32> {tf.aliasing_output = 50 : i64, tf.resource_name = "state.optimizer.state.10.exp_avg"} loc(unknown), %arg210: tensor<768x768xf32> {tf.aliasing_output = 51 : i64, tf.resource_name = "state.optimizer.state.10.exp_avg_sq"} loc(unknown), %arg211: tensor<f32> {tf.aliasing_output = 52 : i64, tf.resource_name = "state.optimizer.state.10.beta1_power"} loc(unknown), %arg212: tensor<f32> {tf.aliasing_output = 53 : i64, tf.resource_name = "state.optimizer.state.10.beta2_power"} loc(unknown), %arg213: tensor<768x768xf32> {tf.aliasing_output = 55 : i64, tf.resource_name = "state.optimizer.state.11.exp_avg"} loc(unknown), %arg214: tensor<768x768xf32> {tf.aliasing_output = 56 : i64, tf.resource_name = "state.optimizer.state.11.exp_avg_sq"} loc(unknown), %arg215: tensor<f32> {tf.aliasing_output = 57 : i64, tf.resource_name = "state.optimizer.state.11.beta1_power"} loc(unknown), %arg216: tensor<f32> {tf.aliasing_output = 58 : i64, tf.resource_name = "state.optimizer.state.11.beta2_power"} loc(unknown), %arg217: tensor<3072x768xf32> {tf.aliasing_output = 60 : i64, tf.resource_name = "state.optimizer.state.12.exp_avg"} loc(unknown), %arg218: tensor<3072x768xf32> {tf.aliasing_output = 61 : i64, tf.resource_name = "state.optimizer.state.12.exp_avg_sq"} loc(unknown), %arg219: tensor<f32> {tf.aliasing_output = 62 : i64, tf.resource_name = "state.optimizer.state.12.beta1_power"} loc(unknown), %arg220: tensor<f32> {tf.aliasing_output = 63 : i64, tf.resource_name = "state.optimizer.state.12.beta2_power"} loc(unknown), %arg221: tensor<768x3072xf32> {tf.aliasing_output = 65 : i64, tf.resource_name = "state.optimizer.state.13.exp_avg"} loc(unknown), %arg222: tensor<768x3072xf32> {tf.aliasing_output = 66 : i64, tf.resource_name = "state.optimizer.state.13.exp_avg_sq"} loc(unknown), %arg223: tensor<f32> {tf.aliasing_output = 67 : i64, tf.resource_name = "state.optimizer.state.13.beta1_power"} loc(unknown), %arg224: tensor<f32> {tf.aliasing_output = 68 : i64, tf.resource_name = "state.optimizer.state.13.beta2_power"} loc(unknown), %arg225: tensor<768x768xf32> {tf.aliasing_output = 70 : i64, tf.resource_name = "state.optimizer.state.14.exp_avg"} loc(unknown), %arg226: tensor<768x768xf32> {tf.aliasing_output = 71 : i64, tf.resource_name = "state.optimizer.state.14.exp_avg_sq"} loc(unknown), %arg227: tensor<f32> {tf.aliasing_output = 72 : i64, tf.resource_name = "state.optimizer.state.14.beta1_power"} loc(unknown), %arg228: tensor<f32> {tf.aliasing_output = 73 : i64, tf.resource_name = "state.optimizer.state.14.beta2_power"} loc(unknown), %arg229: tensor<768x768xf32> {tf.aliasing_output = 75 : i64, tf.resource_name = "state.optimizer.state.15.exp_avg"} loc(unknown), %arg230: tensor<768x768xf32> {tf.aliasing_output = 76 : i64, tf.resource_name = "state.optimizer.state.15.exp_avg_sq"} loc(unknown), %arg231: tensor<f32> {tf.aliasing_output = 77 : i64, tf.resource_name = "state.optimizer.state.15.beta1_power"} loc(unknown), %arg232: tensor<f32> {tf.aliasing_output = 78 : i64, tf.resource_name = "state.optimizer.state.15.beta2_power"} loc(unknown), %arg233: tensor<768x768xf32> {tf.aliasing_output = 80 : i64, tf.resource_name = "state.optimizer.state.16.exp_avg"} loc(unknown), %arg234: tensor<768x768xf32> {tf.aliasing_output = 81 : i64, tf.resource_name = "state.optimizer.state.16.exp_avg_sq"} loc(unknown), %arg235: tensor<f32> {tf.aliasing_output = 82 : i64, tf.resource_name = "state.optimizer.state.16.beta1_power"} loc(unknown), %arg236: tensor<f32> {tf.aliasing_output = 83 : i64, tf.resource_name = "state.optimizer.state.16.beta2_power"} loc(unknown), %arg237: tensor<768x768xf32> {tf.aliasing_output = 85 : i64, tf.resource_name = "state.optimizer.state.17.exp_avg"} loc(unknown), %arg238: tensor<768x768xf32> {tf.aliasing_output = 86 : i64, tf.resource_name = "state.optimizer.state.17.exp_avg_sq"} loc(unknown), %arg239: tensor<f32> {tf.aliasing_output = 87 : i64, tf.resource_name = "state.optimizer.state.17.beta1_power"} loc(unknown), %arg240: tensor<f32> {tf.aliasing_output = 88 : i64, tf.resource_name = "state.optimizer.state.17.beta2_power"} loc(unknown), %arg241: tensor<3072x768xf32> {tf.aliasing_output = 90 : i64, tf.resource_name = "state.optimizer.state.18.exp_avg"} loc(unknown), %arg242: tensor<3072x768xf32> {tf.aliasing_output = 91 : i64, tf.resource_name = "state.optimizer.state.18.exp_avg_sq"} loc(unknown), %arg243: tensor<f32> {tf.aliasing_output = 92 : i64, tf.resource_name = "state.optimizer.state.18.beta1_power"} loc(unknown), %arg244: tensor<f32> {tf.aliasing_output = 93 : i64, tf.resource_name = "state.optimizer.state.18.beta2_power"} loc(unknown), %arg245: tensor<768x3072xf32> {tf.aliasing_output = 95 : i64, tf.resource_name = "state.optimizer.state.19.exp_avg"} loc(unknown), %arg246: tensor<768x3072xf32> {tf.aliasing_output = 96 : i64, tf.resource_name = "state.optimizer.state.19.exp_avg_sq"} loc(unknown), %arg247: tensor<f32> {tf.aliasing_output = 97 : i64, tf.resource_name = "state.optimizer.state.19.beta1_power"} loc(unknown), %arg248: tensor<f32> {tf.aliasing_output = 98 : i64, tf.resource_name = "state.optimizer.state.19.beta2_power"} loc(unknown), %arg249: tensor<768x768xf32> {tf.aliasing_output = 100 : i64, tf.resource_name = "state.optimizer.state.20.exp_avg"} loc(unknown), %arg250: tensor<768x768xf32> {tf.aliasing_output = 101 : i64, tf.resource_name = "state.optimizer.state.20.exp_avg_sq"} loc(unknown), %arg251: tensor<f32> {tf.aliasing_output = 102 : i64, tf.resource_name = "state.optimizer.state.20.beta1_power"} loc(unknown), %arg252: tensor<f32> {tf.aliasing_output = 103 : i64, tf.resource_name = "state.optimizer.state.20.beta2_power"} loc(unknown), %arg253: tensor<768x768xf32> {tf.aliasing_output = 105 : i64, tf.resource_name = "state.optimizer.state.21.exp_avg"} loc(unknown), %arg254: tensor<768x768xf32> {tf.aliasing_output = 106 : i64, tf.resource_name = "state.optimizer.state.21.exp_avg_sq"} loc(unknown), %arg255: tensor<f32> {tf.aliasing_output = 107 : i64, tf.resource_name = "state.optimizer.state.21.beta1_power"} loc(unknown), %arg256: tensor<f32> {tf.aliasing_output = 108 : i64, tf.resource_name = "state.optimizer.state.21.beta2_power"} loc(unknown), %arg257: tensor<768x768xf32> {tf.aliasing_output = 110 : i64, tf.resource_name = "state.optimizer.state.22.exp_avg"} loc(unknown), %arg258: tensor<768x768xf32> {tf.aliasing_output = 111 : i64, tf.resource_name = "state.optimizer.state.22.exp_avg_sq"} loc(unknown), %arg259: tensor<f32> {tf.aliasing_output = 112 : i64, tf.resource_name = "state.optimizer.state.22.beta1_power"} loc(unknown), %arg260: tensor<f32> {tf.aliasing_output = 113 : i64, tf.resource_name = "state.optimizer.state.22.beta2_power"} loc(unknown), %arg261: tensor<768x768xf32> {tf.aliasing_output = 115 : i64, tf.resource_name = "state.optimizer.state.23.exp_avg"} loc(unknown), %arg262: tensor<768x768xf32> {tf.aliasing_output = 116 : i64, tf.resource_name = "state.optimizer.state.23.exp_avg_sq"} loc(unknown), %arg263: tensor<f32> {tf.aliasing_output = 117 : i64, tf.resource_name = "state.optimizer.state.23.beta1_power"} loc(unknown), %arg264: tensor<f32> {tf.aliasing_output = 118 : i64, tf.resource_name = "state.optimizer.state.23.beta2_power"} loc(unknown), %arg265: tensor<3072x768xf32> {tf.aliasing_output = 120 : i64, tf.resource_name = "state.optimizer.state.24.exp_avg"} loc(unknown), %arg266: tensor<3072x768xf32> {tf.aliasing_output = 121 : i64, tf.resource_name = "state.optimizer.state.24.exp_avg_sq"} loc(unknown), %arg267: tensor<f32> {tf.aliasing_output = 122 : i64, tf.resource_name = "state.optimizer.state.24.beta1_power"} loc(unknown), %arg268: tensor<f32> {tf.aliasing_output = 123 : i64, tf.resource_name = "state.optimizer.state.24.beta2_power"} loc(unknown), %arg269: tensor<768x3072xf32> {tf.aliasing_output = 125 : i64, tf.resource_name = "state.optimizer.state.25.exp_avg"} loc(unknown), %arg270: tensor<768x3072xf32> {tf.aliasing_output = 126 : i64, tf.resource_name = "state.optimizer.state.25.exp_avg_sq"} loc(unknown), %arg271: tensor<f32> {tf.aliasing_output = 127 : i64, tf.resource_name = "state.optimizer.state.25.beta1_power"} loc(unknown), %arg272: tensor<f32> {tf.aliasing_output = 128 : i64, tf.resource_name = "state.optimizer.state.25.beta2_power"} loc(unknown), %arg273: tensor<768x768xf32> {tf.aliasing_output = 130 : i64, tf.resource_name = "state.optimizer.state.26.exp_avg"} loc(unknown), %arg274: tensor<768x768xf32> {tf.aliasing_output = 131 : i64, tf.resource_name = "state.optimizer.state.26.exp_avg_sq"} loc(unknown), %arg275: tensor<f32> {tf.aliasing_output = 132 : i64, tf.resource_name = "state.optimizer.state.26.beta1_power"} loc(unknown), %arg276: tensor<f32> {tf.aliasing_output = 133 : i64, tf.resource_name = "state.optimizer.state.26.beta2_power"} loc(unknown), %arg277: tensor<768x768xf32> {tf.aliasing_output = 135 : i64, tf.resource_name = "state.optimizer.state.27.exp_avg"} loc(unknown), %arg278: tensor<768x768xf32> {tf.aliasing_output = 136 : i64, tf.resource_name = "state.optimizer.state.27.exp_avg_sq"} loc(unknown), %arg279: tensor<f32> {tf.aliasing_output = 137 : i64, tf.resource_name = "state.optimizer.state.27.beta1_power"} loc(unknown), %arg280: tensor<f32> {tf.aliasing_output = 138 : i64, tf.resource_name = "state.optimizer.state.27.beta2_power"} loc(unknown), %arg281: tensor<768x768xf32> {tf.aliasing_output = 140 : i64, tf.resource_name = "state.optimizer.state.28.exp_avg"} loc(unknown), %arg282: tensor<768x768xf32> {tf.aliasing_output = 141 : i64, tf.resource_name = "state.optimizer.state.28.exp_avg_sq"} loc(unknown), %arg283: tensor<f32> {tf.aliasing_output = 142 : i64, tf.resource_name = "state.optimizer.state.28.beta1_power"} loc(unknown), %arg284: tensor<f32> {tf.aliasing_output = 143 : i64, tf.resource_name = "state.optimizer.state.28.beta2_power"} loc(unknown), %arg285: tensor<768x768xf32> {tf.aliasing_output = 145 : i64, tf.resource_name = "state.optimizer.state.29.exp_avg"} loc(unknown), %arg286: tensor<768x768xf32> {tf.aliasing_output = 146 : i64, tf.resource_name = "state.optimizer.state.29.exp_avg_sq"} loc(unknown), %arg287: tensor<f32> {tf.aliasing_output = 147 : i64, tf.resource_name = "state.optimizer.state.29.beta1_power"} loc(unknown), %arg288: tensor<f32> {tf.aliasing_output = 148 : i64, tf.resource_name = "state.optimizer.state.29.beta2_power"} loc(unknown), %arg289: tensor<3072x768xf32> {tf.aliasing_output = 150 : i64, tf.resource_name = "state.optimizer.state.30.exp_avg"} loc(unknown), %arg290: tensor<3072x768xf32> {tf.aliasing_output = 151 : i64, tf.resource_name = "state.optimizer.state.30.exp_avg_sq"} loc(unknown), %arg291: tensor<f32> {tf.aliasing_output = 152 : i64, tf.resource_name = "state.optimizer.state.30.beta1_power"} loc(unknown), %arg292: tensor<f32> {tf.aliasing_output = 153 : i64, tf.resource_name = "state.optimizer.state.30.beta2_power"} loc(unknown), %arg293: tensor<768x3072xf32> {tf.aliasing_output = 155 : i64, tf.resource_name = "state.optimizer.state.31.exp_avg"} loc(unknown), %arg294: tensor<768x3072xf32> {tf.aliasing_output = 156 : i64, tf.resource_name = "state.optimizer.state.31.exp_avg_sq"} loc(unknown), %arg295: tensor<f32> {tf.aliasing_output = 157 : i64, tf.resource_name = "state.optimizer.state.31.beta1_power"} loc(unknown), %arg296: tensor<f32> {tf.aliasing_output = 158 : i64, tf.resource_name = "state.optimizer.state.31.beta2_power"} loc(unknown), %arg297: tensor<768x768xf32> {tf.aliasing_output = 160 : i64, tf.resource_name = "state.optimizer.state.32.exp_avg"} loc(unknown), %arg298: tensor<768x768xf32> {tf.aliasing_output = 161 : i64, tf.resource_name = "state.optimizer.state.32.exp_avg_sq"} loc(unknown), %arg299: tensor<f32> {tf.aliasing_output = 162 : i64, tf.resource_name = "state.optimizer.state.32.beta1_power"} loc(unknown), %arg300: tensor<f32> {tf.aliasing_output = 163 : i64, tf.resource_name = "state.optimizer.state.32.beta2_power"} loc(unknown), %arg301: tensor<768x768xf32> {tf.aliasing_output = 165 : i64, tf.resource_name = "state.optimizer.state.33.exp_avg"} loc(unknown), %arg302: tensor<768x768xf32> {tf.aliasing_output = 166 : i64, tf.resource_name = "state.optimizer.state.33.exp_avg_sq"} loc(unknown), %arg303: tensor<f32> {tf.aliasing_output = 167 : i64, tf.resource_name = "state.optimizer.state.33.beta1_power"} loc(unknown), %arg304: tensor<f32> {tf.aliasing_output = 168 : i64, tf.resource_name = "state.optimizer.state.33.beta2_power"} loc(unknown), %arg305: tensor<768x768xf32> {tf.aliasing_output = 170 : i64, tf.resource_name = "state.optimizer.state.34.exp_avg"} loc(unknown), %arg306: tensor<768x768xf32> {tf.aliasing_output = 171 : i64, tf.resource_name = "state.optimizer.state.34.exp_avg_sq"} loc(unknown), %arg307: tensor<f32> {tf.aliasing_output = 172 : i64, tf.resource_name = "state.optimizer.state.34.beta1_power"} loc(unknown), %arg308: tensor<f32> {tf.aliasing_output = 173 : i64, tf.resource_name = "state.optimizer.state.34.beta2_power"} loc(unknown), %arg309: tensor<768x768xf32> {tf.aliasing_output = 175 : i64, tf.resource_name = "state.optimizer.state.35.exp_avg"} loc(unknown), %arg310: tensor<768x768xf32> {tf.aliasing_output = 176 : i64, tf.resource_name = "state.optimizer.state.35.exp_avg_sq"} loc(unknown), %arg311: tensor<f32> {tf.aliasing_output = 177 : i64, tf.resource_name = "state.optimizer.state.35.beta1_power"} loc(unknown), %arg312: tensor<f32> {tf.aliasing_output = 178 : i64, tf.resource_name = "state.optimizer.state.35.beta2_power"} loc(unknown), %arg313: tensor<3072x768xf32> {tf.aliasing_output = 180 : i64, tf.resource_name = "state.optimizer.state.36.exp_avg"} loc(unknown), %arg314: tensor<3072x768xf32> {tf.aliasing_output = 181 : i64, tf.resource_name = "state.optimizer.state.36.exp_avg_sq"} loc(unknown), %arg315: tensor<f32> {tf.aliasing_output = 182 : i64, tf.resource_name = "state.optimizer.state.36.beta1_power"} loc(unknown), %arg316: tensor<f32> {tf.aliasing_output = 183 : i64, tf.resource_name = "state.optimizer.state.36.beta2_power"} loc(unknown), %arg317: tensor<768x3072xf32> {tf.aliasing_output = 185 : i64, tf.resource_name = "state.optimizer.state.37.exp_avg"} loc(unknown), %arg318: tensor<768x3072xf32> {tf.aliasing_output = 186 : i64, tf.resource_name = "state.optimizer.state.37.exp_avg_sq"} loc(unknown), %arg319: tensor<f32> {tf.aliasing_output = 187 : i64, tf.resource_name = "state.optimizer.state.37.beta1_power"} loc(unknown), %arg320: tensor<f32> {tf.aliasing_output = 188 : i64, tf.resource_name = "state.optimizer.state.37.beta2_power"} loc(unknown), %arg321: tensor<768x768xf32> {tf.aliasing_output = 190 : i64, tf.resource_name = "state.optimizer.state.38.exp_avg"} loc(unknown), %arg322: tensor<768x768xf32> {tf.aliasing_output = 191 : i64, tf.resource_name = "state.optimizer.state.38.exp_avg_sq"} loc(unknown), %arg323: tensor<f32> {tf.aliasing_output = 192 : i64, tf.resource_name = "state.optimizer.state.38.beta1_power"} loc(unknown), %arg324: tensor<f32> {tf.aliasing_output = 193 : i64, tf.resource_name = "state.optimizer.state.38.beta2_power"} loc(unknown), %arg325: tensor<768x768xf32> {tf.aliasing_output = 195 : i64, tf.resource_name = "state.optimizer.state.39.exp_avg"} loc(unknown), %arg326: tensor<768x768xf32> {tf.aliasing_output = 196 : i64, tf.resource_name = "state.optimizer.state.39.exp_avg_sq"} loc(unknown), %arg327: tensor<f32> {tf.aliasing_output = 197 : i64, tf.resource_name = "state.optimizer.state.39.beta1_power"} loc(unknown), %arg328: tensor<f32> {tf.aliasing_output = 198 : i64, tf.resource_name = "state.optimizer.state.39.beta2_power"} loc(unknown), %arg329: tensor<768x768xf32> {tf.aliasing_output = 200 : i64, tf.resource_name = "state.optimizer.state.40.exp_avg"} loc(unknown), %arg330: tensor<768x768xf32> {tf.aliasing_output = 201 : i64, tf.resource_name = "state.optimizer.state.40.exp_avg_sq"} loc(unknown), %arg331: tensor<f32> {tf.aliasing_output = 202 : i64, tf.resource_name = "state.optimizer.state.40.beta1_power"} loc(unknown), %arg332: tensor<f32> {tf.aliasing_output = 203 : i64, tf.resource_name = "state.optimizer.state.40.beta2_power"} loc(unknown), %arg333: tensor<768x768xf32> {tf.aliasing_output = 205 : i64, tf.resource_name = "state.optimizer.state.41.exp_avg"} loc(unknown), %arg334: tensor<768x768xf32> {tf.aliasing_output = 206 : i64, tf.resource_name = "state.optimizer.state.41.exp_avg_sq"} loc(unknown), %arg335: tensor<f32> {tf.aliasing_output = 207 : i64, tf.resource_name = "state.optimizer.state.41.beta1_power"} loc(unknown), %arg336: tensor<f32> {tf.aliasing_output = 208 : i64, tf.resource_name = "state.optimizer.state.41.beta2_power"} loc(unknown), %arg337: tensor<3072x768xf32> {tf.aliasing_output = 210 : i64, tf.resource_name = "state.optimizer.state.42.exp_avg"} loc(unknown), %arg338: tensor<3072x768xf32> {tf.aliasing_output = 211 : i64, tf.resource_name = "state.optimizer.state.42.exp_avg_sq"} loc(unknown), %arg339: tensor<f32> {tf.aliasing_output = 212 : i64, tf.resource_name = "state.optimizer.state.42.beta1_power"} loc(unknown), %arg340: tensor<f32> {tf.aliasing_output = 213 : i64, tf.resource_name = "state.optimizer.state.42.beta2_power"} loc(unknown), %arg341: tensor<768x3072xf32> {tf.aliasing_output = 215 : i64, tf.resource_name = "state.optimizer.state.43.exp_avg"} loc(unknown), %arg342: tensor<768x3072xf32> {tf.aliasing_output = 216 : i64, tf.resource_name = "state.optimizer.state.43.exp_avg_sq"} loc(unknown), %arg343: tensor<f32> {tf.aliasing_output = 217 : i64, tf.resource_name = "state.optimizer.state.43.beta1_power"} loc(unknown), %arg344: tensor<f32> {tf.aliasing_output = 218 : i64, tf.resource_name = "state.optimizer.state.43.beta2_power"} loc(unknown), %arg345: tensor<768x768xf32> {tf.aliasing_output = 220 : i64, tf.resource_name = "state.optimizer.state.44.exp_avg"} loc(unknown), %arg346: tensor<768x768xf32> {tf.aliasing_output = 221 : i64, tf.resource_name = "state.optimizer.state.44.exp_avg_sq"} loc(unknown), %arg347: tensor<f32> {tf.aliasing_output = 222 : i64, tf.resource_name = "state.optimizer.state.44.beta1_power"} loc(unknown), %arg348: tensor<f32> {tf.aliasing_output = 223 : i64, tf.resource_name = "state.optimizer.state.44.beta2_power"} loc(unknown), %arg349: tensor<768x768xf32> {tf.aliasing_output = 225 : i64, tf.resource_name = "state.optimizer.state.45.exp_avg"} loc(unknown), %arg350: tensor<768x768xf32> {tf.aliasing_output = 226 : i64, tf.resource_name = "state.optimizer.state.45.exp_avg_sq"} loc(unknown), %arg351: tensor<f32> {tf.aliasing_output = 227 : i64, tf.resource_name = "state.optimizer.state.45.beta1_power"} loc(unknown), %arg352: tensor<f32> {tf.aliasing_output = 228 : i64, tf.resource_name = "state.optimizer.state.45.beta2_power"} loc(unknown), %arg353: tensor<768x768xf32> {tf.aliasing_output = 230 : i64, tf.resource_name = "state.optimizer.state.46.exp_avg"} loc(unknown), %arg354: tensor<768x768xf32> {tf.aliasing_output = 231 : i64, tf.resource_name = "state.optimizer.state.46.exp_avg_sq"} loc(unknown), %arg355: tensor<f32> {tf.aliasing_output = 232 : i64, tf.resource_name = "state.optimizer.state.46.beta1_power"} loc(unknown), %arg356: tensor<f32> {tf.aliasing_output = 233 : i64, tf.resource_name = "state.optimizer.state.46.beta2_power"} loc(unknown), %arg357: tensor<768x768xf32> {tf.aliasing_output = 235 : i64, tf.resource_name = "state.optimizer.state.47.exp_avg"} loc(unknown), %arg358: tensor<768x768xf32> {tf.aliasing_output = 236 : i64, tf.resource_name = "state.optimizer.state.47.exp_avg_sq"} loc(unknown), %arg359: tensor<f32> {tf.aliasing_output = 237 : i64, tf.resource_name = "state.optimizer.state.47.beta1_power"} loc(unknown), %arg360: tensor<f32> {tf.aliasing_output = 238 : i64, tf.resource_name = "state.optimizer.state.47.beta2_power"} loc(unknown), %arg361: tensor<3072x768xf32> {tf.aliasing_output = 240 : i64, tf.resource_name = "state.optimizer.state.48.exp_avg"} loc(unknown), %arg362: tensor<3072x768xf32> {tf.aliasing_output = 241 : i64, tf.resource_name = "state.optimizer.state.48.exp_avg_sq"} loc(unknown), %arg363: tensor<f32> {tf.aliasing_output = 242 : i64, tf.resource_name = "state.optimizer.state.48.beta1_power"} loc(unknown), %arg364: tensor<f32> {tf.aliasing_output = 243 : i64, tf.resource_name = "state.optimizer.state.48.beta2_power"} loc(unknown), %arg365: tensor<768x3072xf32> {tf.aliasing_output = 245 : i64, tf.resource_name = "state.optimizer.state.49.exp_avg"} loc(unknown), %arg366: tensor<768x3072xf32> {tf.aliasing_output = 246 : i64, tf.resource_name = "state.optimizer.state.49.exp_avg_sq"} loc(unknown), %arg367: tensor<f32> {tf.aliasing_output = 247 : i64, tf.resource_name = "state.optimizer.state.49.beta1_power"} loc(unknown), %arg368: tensor<f32> {tf.aliasing_output = 248 : i64, tf.resource_name = "state.optimizer.state.49.beta2_power"} loc(unknown), %arg369: tensor<768x768xf32> {tf.aliasing_output = 250 : i64, tf.resource_name = "state.optimizer.state.50.exp_avg"} loc(unknown), %arg370: tensor<768x768xf32> {tf.aliasing_output = 251 : i64, tf.resource_name = "state.optimizer.state.50.exp_avg_sq"} loc(unknown), %arg371: tensor<f32> {tf.aliasing_output = 252 : i64, tf.resource_name = "state.optimizer.state.50.beta1_power"} loc(unknown), %arg372: tensor<f32> {tf.aliasing_output = 253 : i64, tf.resource_name = "state.optimizer.state.50.beta2_power"} loc(unknown), %arg373: tensor<768x768xf32> {tf.aliasing_output = 255 : i64, tf.resource_name = "state.optimizer.state.51.exp_avg"} loc(unknown), %arg374: tensor<768x768xf32> {tf.aliasing_output = 256 : i64, tf.resource_name = "state.optimizer.state.51.exp_avg_sq"} loc(unknown), %arg375: tensor<f32> {tf.aliasing_output = 257 : i64, tf.resource_name = "state.optimizer.state.51.beta1_power"} loc(unknown), %arg376: tensor<f32> {tf.aliasing_output = 258 : i64, tf.resource_name = "state.optimizer.state.51.beta2_power"} loc(unknown), %arg377: tensor<768x768xf32> {tf.aliasing_output = 260 : i64, tf.resource_name = "state.optimizer.state.52.exp_avg"} loc(unknown), %arg378: tensor<768x768xf32> {tf.aliasing_output = 261 : i64, tf.resource_name = "state.optimizer.state.52.exp_avg_sq"} loc(unknown), %arg379: tensor<f32> {tf.aliasing_output = 262 : i64, tf.resource_name = "state.optimizer.state.52.beta1_power"} loc(unknown), %arg380: tensor<f32> {tf.aliasing_output = 263 : i64, tf.resource_name = "state.optimizer.state.52.beta2_power"} loc(unknown), %arg381: tensor<768x768xf32> {tf.aliasing_output = 265 : i64, tf.resource_name = "state.optimizer.state.53.exp_avg"} loc(unknown), %arg382: tensor<768x768xf32> {tf.aliasing_output = 266 : i64, tf.resource_name = "state.optimizer.state.53.exp_avg_sq"} loc(unknown), %arg383: tensor<f32> {tf.aliasing_output = 267 : i64, tf.resource_name = "state.optimizer.state.53.beta1_power"} loc(unknown), %arg384: tensor<f32> {tf.aliasing_output = 268 : i64, tf.resource_name = "state.optimizer.state.53.beta2_power"} loc(unknown), %arg385: tensor<3072x768xf32> {tf.aliasing_output = 270 : i64, tf.resource_name = "state.optimizer.state.54.exp_avg"} loc(unknown), %arg386: tensor<3072x768xf32> {tf.aliasing_output = 271 : i64, tf.resource_name = "state.optimizer.state.54.exp_avg_sq"} loc(unknown), %arg387: tensor<f32> {tf.aliasing_output = 272 : i64, tf.resource_name = "state.optimizer.state.54.beta1_power"} loc(unknown), %arg388: tensor<f32> {tf.aliasing_output = 273 : i64, tf.resource_name = "state.optimizer.state.54.beta2_power"} loc(unknown), %arg389: tensor<768x3072xf32> {tf.aliasing_output = 275 : i64, tf.resource_name = "state.optimizer.state.55.exp_avg"} loc(unknown), %arg390: tensor<768x3072xf32> {tf.aliasing_output = 276 : i64, tf.resource_name = "state.optimizer.state.55.exp_avg_sq"} loc(unknown), %arg391: tensor<f32> {tf.aliasing_output = 277 : i64, tf.resource_name = "state.optimizer.state.55.beta1_power"} loc(unknown), %arg392: tensor<f32> {tf.aliasing_output = 278 : i64, tf.resource_name = "state.optimizer.state.55.beta2_power"} loc(unknown), %arg393: tensor<768x768xf32> {tf.aliasing_output = 280 : i64, tf.resource_name = "state.optimizer.state.56.exp_avg"} loc(unknown), %arg394: tensor<768x768xf32> {tf.aliasing_output = 281 : i64, tf.resource_name = "state.optimizer.state.56.exp_avg_sq"} loc(unknown), %arg395: tensor<f32> {tf.aliasing_output = 282 : i64, tf.resource_name = "state.optimizer.state.56.beta1_power"} loc(unknown), %arg396: tensor<f32> {tf.aliasing_output = 283 : i64, tf.resource_name = "state.optimizer.state.56.beta2_power"} loc(unknown), %arg397: tensor<768x768xf32> {tf.aliasing_output = 285 : i64, tf.resource_name = "state.optimizer.state.57.exp_avg"} loc(unknown), %arg398: tensor<768x768xf32> {tf.aliasing_output = 286 : i64, tf.resource_name = "state.optimizer.state.57.exp_avg_sq"} loc(unknown), %arg399: tensor<f32> {tf.aliasing_output = 287 : i64, tf.resource_name = "state.optimizer.state.57.beta1_power"} loc(unknown), %arg400: tensor<f32> {tf.aliasing_output = 288 : i64, tf.resource_name = "state.optimizer.state.57.beta2_power"} loc(unknown), %arg401: tensor<768x768xf32> {tf.aliasing_output = 290 : i64, tf.resource_name = "state.optimizer.state.58.exp_avg"} loc(unknown), %arg402: tensor<768x768xf32> {tf.aliasing_output = 291 : i64, tf.resource_name = "state.optimizer.state.58.exp_avg_sq"} loc(unknown), %arg403: tensor<f32> {tf.aliasing_output = 292 : i64, tf.resource_name = "state.optimizer.state.58.beta1_power"} loc(unknown), %arg404: tensor<f32> {tf.aliasing_output = 293 : i64, tf.resource_name = "state.optimizer.state.58.beta2_power"} loc(unknown), %arg405: tensor<768x768xf32> {tf.aliasing_output = 295 : i64, tf.resource_name = "state.optimizer.state.59.exp_avg"} loc(unknown), %arg406: tensor<768x768xf32> {tf.aliasing_output = 296 : i64, tf.resource_name = "state.optimizer.state.59.exp_avg_sq"} loc(unknown), %arg407: tensor<f32> {tf.aliasing_output = 297 : i64, tf.resource_name = "state.optimizer.state.59.beta1_power"} loc(unknown), %arg408: tensor<f32> {tf.aliasing_output = 298 : i64, tf.resource_name = "state.optimizer.state.59.beta2_power"} loc(unknown), %arg409: tensor<3072x768xf32> {tf.aliasing_output = 300 : i64, tf.resource_name = "state.optimizer.state.60.exp_avg"} loc(unknown), %arg410: tensor<3072x768xf32> {tf.aliasing_output = 301 : i64, tf.resource_name = "state.optimizer.state.60.exp_avg_sq"} loc(unknown), %arg411: tensor<f32> {tf.aliasing_output = 302 : i64, tf.resource_name = "state.optimizer.state.60.beta1_power"} loc(unknown), %arg412: tensor<f32> {tf.aliasing_output = 303 : i64, tf.resource_name = "state.optimizer.state.60.beta2_power"} loc(unknown), %arg413: tensor<768x3072xf32> {tf.aliasing_output = 305 : i64, tf.resource_name = "state.optimizer.state.61.exp_avg"} loc(unknown), %arg414: tensor<768x3072xf32> {tf.aliasing_output = 306 : i64, tf.resource_name = "state.optimizer.state.61.exp_avg_sq"} loc(unknown), %arg415: tensor<f32> {tf.aliasing_output = 307 : i64, tf.resource_name = "state.optimizer.state.61.beta1_power"} loc(unknown), %arg416: tensor<f32> {tf.aliasing_output = 308 : i64, tf.resource_name = "state.optimizer.state.61.beta2_power"} loc(unknown), %arg417: tensor<768xf32> {tf.aliasing_output = 310 : i64, tf.resource_name = "state.optimizer.state.62.exp_avg"} loc(unknown), %arg418: tensor<768xf32> {tf.aliasing_output = 311 : i64, tf.resource_name = "state.optimizer.state.62.exp_avg_sq"} loc(unknown), %arg419: tensor<f32> {tf.aliasing_output = 312 : i64, tf.resource_name = "state.optimizer.state.62.beta1_power"} loc(unknown), %arg420: tensor<f32> {tf.aliasing_output = 313 : i64, tf.resource_name = "state.optimizer.state.62.beta2_power"} loc(unknown), %arg421: tensor<768xf32> {tf.aliasing_output = 315 : i64, tf.resource_name = "state.optimizer.state.63.exp_avg"} loc(unknown), %arg422: tensor<768xf32> {tf.aliasing_output = 316 : i64, tf.resource_name = "state.optimizer.state.63.exp_avg_sq"} loc(unknown), %arg423: tensor<f32> {tf.aliasing_output = 317 : i64, tf.resource_name = "state.optimizer.state.63.beta1_power"} loc(unknown), %arg424: tensor<f32> {tf.aliasing_output = 318 : i64, tf.resource_name = "state.optimizer.state.63.beta2_power"} loc(unknown), %arg425: tensor<768xf32> {tf.aliasing_output = 320 : i64, tf.resource_name = "state.optimizer.state.64.exp_avg"} loc(unknown), %arg426: tensor<768xf32> {tf.aliasing_output = 321 : i64, tf.resource_name = "state.optimizer.state.64.exp_avg_sq"} loc(unknown), %arg427: tensor<f32> {tf.aliasing_output = 322 : i64, tf.resource_name = "state.optimizer.state.64.beta1_power"} loc(unknown), %arg428: tensor<f32> {tf.aliasing_output = 323 : i64, tf.resource_name = "state.optimizer.state.64.beta2_power"} loc(unknown), %arg429: tensor<768xf32> {tf.aliasing_output = 325 : i64, tf.resource_name = "state.optimizer.state.65.exp_avg"} loc(unknown), %arg430: tensor<768xf32> {tf.aliasing_output = 326 : i64, tf.resource_name = "state.optimizer.state.65.exp_avg_sq"} loc(unknown), %arg431: tensor<f32> {tf.aliasing_output = 327 : i64, tf.resource_name = "state.optimizer.state.65.beta1_power"} loc(unknown), %arg432: tensor<f32> {tf.aliasing_output = 328 : i64, tf.resource_name = "state.optimizer.state.65.beta2_power"} loc(unknown), %arg433: tensor<768xf32> {tf.aliasing_output = 330 : i64, tf.resource_name = "state.optimizer.state.66.exp_avg"} loc(unknown), %arg434: tensor<768xf32> {tf.aliasing_output = 331 : i64, tf.resource_name = "state.optimizer.state.66.exp_avg_sq"} loc(unknown), %arg435: tensor<f32> {tf.aliasing_output = 332 : i64, tf.resource_name = "state.optimizer.state.66.beta1_power"} loc(unknown), %arg436: tensor<f32> {tf.aliasing_output = 333 : i64, tf.resource_name = "state.optimizer.state.66.beta2_power"} loc(unknown), %arg437: tensor<768xf32> {tf.aliasing_output = 335 : i64, tf.resource_name = "state.optimizer.state.67.exp_avg"} loc(unknown), %arg438: tensor<768xf32> {tf.aliasing_output = 336 : i64, tf.resource_name = "state.optimizer.state.67.exp_avg_sq"} loc(unknown), %arg439: tensor<f32> {tf.aliasing_output = 337 : i64, tf.resource_name = "state.optimizer.state.67.beta1_power"} loc(unknown), %arg440: tensor<f32> {tf.aliasing_output = 338 : i64, tf.resource_name = "state.optimizer.state.67.beta2_power"} loc(unknown), %arg441: tensor<768xf32> {tf.aliasing_output = 340 : i64, tf.resource_name = "state.optimizer.state.68.exp_avg"} loc(unknown), %arg442: tensor<768xf32> {tf.aliasing_output = 341 : i64, tf.resource_name = "state.optimizer.state.68.exp_avg_sq"} loc(unknown), %arg443: tensor<f32> {tf.aliasing_output = 342 : i64, tf.resource_name = "state.optimizer.state.68.beta1_power"} loc(unknown), %arg444: tensor<f32> {tf.aliasing_output = 343 : i64, tf.resource_name = "state.optimizer.state.68.beta2_power"} loc(unknown), %arg445: tensor<768xf32> {tf.aliasing_output = 345 : i64, tf.resource_name = "state.optimizer.state.69.exp_avg"} loc(unknown), %arg446: tensor<768xf32> {tf.aliasing_output = 346 : i64, tf.resource_name = "state.optimizer.state.69.exp_avg_sq"} loc(unknown), %arg447: tensor<f32> {tf.aliasing_output = 347 : i64, tf.resource_name = "state.optimizer.state.69.beta1_power"} loc(unknown), %arg448: tensor<f32> {tf.aliasing_output = 348 : i64, tf.resource_name = "state.optimizer.state.69.beta2_power"} loc(unknown), %arg449: tensor<3072xf32> {tf.aliasing_output = 350 : i64, tf.resource_name = "state.optimizer.state.70.exp_avg"} loc(unknown), %arg450: tensor<3072xf32> {tf.aliasing_output = 351 : i64, tf.resource_name = "state.optimizer.state.70.exp_avg_sq"} loc(unknown), %arg451: tensor<f32> {tf.aliasing_output = 352 : i64, tf.resource_name = "state.optimizer.state.70.beta1_power"} loc(unknown), %arg452: tensor<f32> {tf.aliasing_output = 353 : i64, tf.resource_name = "state.optimizer.state.70.beta2_power"} loc(unknown), %arg453: tensor<768xf32> {tf.aliasing_output = 355 : i64, tf.resource_name = "state.optimizer.state.71.exp_avg"} loc(unknown), %arg454: tensor<768xf32> {tf.aliasing_output = 356 : i64, tf.resource_name = "state.optimizer.state.71.exp_avg_sq"} loc(unknown), %arg455: tensor<f32> {tf.aliasing_output = 357 : i64, tf.resource_name = "state.optimizer.state.71.beta1_power"} loc(unknown), %arg456: tensor<f32> {tf.aliasing_output = 358 : i64, tf.resource_name = "state.optimizer.state.71.beta2_power"} loc(unknown), %arg457: tensor<768xf32> {tf.aliasing_output = 360 : i64, tf.resource_name = "state.optimizer.state.72.exp_avg"} loc(unknown), %arg458: tensor<768xf32> {tf.aliasing_output = 361 : i64, tf.resource_name = "state.optimizer.state.72.exp_avg_sq"} loc(unknown), %arg459: tensor<f32> {tf.aliasing_output = 362 : i64, tf.resource_name = "state.optimizer.state.72.beta1_power"} loc(unknown), %arg460: tensor<f32> {tf.aliasing_output = 363 : i64, tf.resource_name = "state.optimizer.state.72.beta2_power"} loc(unknown), %arg461: tensor<768xf32> {tf.aliasing_output = 365 : i64, tf.resource_name = "state.optimizer.state.73.exp_avg"} loc(unknown), %arg462: tensor<768xf32> {tf.aliasing_output = 366 : i64, tf.resource_name = "state.optimizer.state.73.exp_avg_sq"} loc(unknown), %arg463: tensor<f32> {tf.aliasing_output = 367 : i64, tf.resource_name = "state.optimizer.state.73.beta1_power"} loc(unknown), %arg464: tensor<f32> {tf.aliasing_output = 368 : i64, tf.resource_name = "state.optimizer.state.73.beta2_power"} loc(unknown), %arg465: tensor<768xf32> {tf.aliasing_output = 370 : i64, tf.resource_name = "state.optimizer.state.74.exp_avg"} loc(unknown), %arg466: tensor<768xf32> {tf.aliasing_output = 371 : i64, tf.resource_name = "state.optimizer.state.74.exp_avg_sq"} loc(unknown), %arg467: tensor<f32> {tf.aliasing_output = 372 : i64, tf.resource_name = "state.optimizer.state.74.beta1_power"} loc(unknown), %arg468: tensor<f32> {tf.aliasing_output = 373 : i64, tf.resource_name = "state.optimizer.state.74.beta2_power"} loc(unknown), %arg469: tensor<768xf32> {tf.aliasing_output = 375 : i64, tf.resource_name = "state.optimizer.state.75.exp_avg"} loc(unknown), %arg470: tensor<768xf32> {tf.aliasing_output = 376 : i64, tf.resource_name = "state.optimizer.state.75.exp_avg_sq"} loc(unknown), %arg471: tensor<f32> {tf.aliasing_output = 377 : i64, tf.resource_name = "state.optimizer.state.75.beta1_power"} loc(unknown), %arg472: tensor<f32> {tf.aliasing_output = 378 : i64, tf.resource_name = "state.optimizer.state.75.beta2_power"} loc(unknown), %arg473: tensor<768xf32> {tf.aliasing_output = 380 : i64, tf.resource_name = "state.optimizer.state.76.exp_avg"} loc(unknown), %arg474: tensor<768xf32> {tf.aliasing_output = 381 : i64, tf.resource_name = "state.optimizer.state.76.exp_avg_sq"} loc(unknown), %arg475: tensor<f32> {tf.aliasing_output = 382 : i64, tf.resource_name = "state.optimizer.state.76.beta1_power"} loc(unknown), %arg476: tensor<f32> {tf.aliasing_output = 383 : i64, tf.resource_name = "state.optimizer.state.76.beta2_power"} loc(unknown), %arg477: tensor<768xf32> {tf.aliasing_output = 385 : i64, tf.resource_name = "state.optimizer.state.77.exp_avg"} loc(unknown), %arg478: tensor<768xf32> {tf.aliasing_output = 386 : i64, tf.resource_name = "state.optimizer.state.77.exp_avg_sq"} loc(unknown), %arg479: tensor<f32> {tf.aliasing_output = 387 : i64, tf.resource_name = "state.optimizer.state.77.beta1_power"} loc(unknown), %arg480: tensor<f32> {tf.aliasing_output = 388 : i64, tf.resource_name = "state.optimizer.state.77.beta2_power"} loc(unknown), %arg481: tensor<768xf32> {tf.aliasing_output = 390 : i64, tf.resource_name = "state.optimizer.state.78.exp_avg"} loc(unknown), %arg482: tensor<768xf32> {tf.aliasing_output = 391 : i64, tf.resource_name = "state.optimizer.state.78.exp_avg_sq"} loc(unknown), %arg483: tensor<f32> {tf.aliasing_output = 392 : i64, tf.resource_name = "state.optimizer.state.78.beta1_power"} loc(unknown), %arg484: tensor<f32> {tf.aliasing_output = 393 : i64, tf.resource_name = "state.optimizer.state.78.beta2_power"} loc(unknown), %arg485: tensor<768xf32> {tf.aliasing_output = 395 : i64, tf.resource_name = "state.optimizer.state.79.exp_avg"} loc(unknown), %arg486: tensor<768xf32> {tf.aliasing_output = 396 : i64, tf.resource_name = "state.optimizer.state.79.exp_avg_sq"} loc(unknown), %arg487: tensor<f32> {tf.aliasing_output = 397 : i64, tf.resource_name = "state.optimizer.state.79.beta1_power"} loc(unknown), %arg488: tensor<f32> {tf.aliasing_output = 398 : i64, tf.resource_name = "state.optimizer.state.79.beta2_power"} loc(unknown), %arg489: tensor<3072xf32> {tf.aliasing_output = 400 : i64, tf.resource_name = "state.optimizer.state.80.exp_avg"} loc(unknown), %arg490: tensor<3072xf32> {tf.aliasing_output = 401 : i64, tf.resource_name = "state.optimizer.state.80.exp_avg_sq"} loc(unknown), %arg491: tensor<f32> {tf.aliasing_output = 402 : i64, tf.resource_name = "state.optimizer.state.80.beta1_power"} loc(unknown), %arg492: tensor<f32> {tf.aliasing_output = 403 : i64, tf.resource_name = "state.optimizer.state.80.beta2_power"} loc(unknown), %arg493: tensor<768xf32> {tf.aliasing_output = 405 : i64, tf.resource_name = "state.optimizer.state.81.exp_avg"} loc(unknown), %arg494: tensor<768xf32> {tf.aliasing_output = 406 : i64, tf.resource_name = "state.optimizer.state.81.exp_avg_sq"} loc(unknown), %arg495: tensor<f32> {tf.aliasing_output = 407 : i64, tf.resource_name = "state.optimizer.state.81.beta1_power"} loc(unknown), %arg496: tensor<f32> {tf.aliasing_output = 408 : i64, tf.resource_name = "state.optimizer.state.81.beta2_power"} loc(unknown), %arg497: tensor<768xf32> {tf.aliasing_output = 410 : i64, tf.resource_name = "state.optimizer.state.82.exp_avg"} loc(unknown), %arg498: tensor<768xf32> {tf.aliasing_output = 411 : i64, tf.resource_name = "state.optimizer.state.82.exp_avg_sq"} loc(unknown), %arg499: tensor<f32> {tf.aliasing_output = 412 : i64, tf.resource_name = "state.optimizer.state.82.beta1_power"} loc(unknown), %arg500: tensor<f32> {tf.aliasing_output = 413 : i64, tf.resource_name = "state.optimizer.state.82.beta2_power"} loc(unknown), %arg501: tensor<768xf32> {tf.aliasing_output = 415 : i64, tf.resource_name = "state.optimizer.state.83.exp_avg"} loc(unknown), %arg502: tensor<768xf32> {tf.aliasing_output = 416 : i64, tf.resource_name = "state.optimizer.state.83.exp_avg_sq"} loc(unknown), %arg503: tensor<f32> {tf.aliasing_output = 417 : i64, tf.resource_name = "state.optimizer.state.83.beta1_power"} loc(unknown), %arg504: tensor<f32> {tf.aliasing_output = 418 : i64, tf.resource_name = "state.optimizer.state.83.beta2_power"} loc(unknown), %arg505: tensor<768xf32> {tf.aliasing_output = 420 : i64, tf.resource_name = "state.optimizer.state.84.exp_avg"} loc(unknown), %arg506: tensor<768xf32> {tf.aliasing_output = 421 : i64, tf.resource_name = "state.optimizer.state.84.exp_avg_sq"} loc(unknown), %arg507: tensor<f32> {tf.aliasing_output = 422 : i64, tf.resource_name = "state.optimizer.state.84.beta1_power"} loc(unknown), %arg508: tensor<f32> {tf.aliasing_output = 423 : i64, tf.resource_name = "state.optimizer.state.84.beta2_power"} loc(unknown), %arg509: tensor<768xf32> {tf.aliasing_output = 425 : i64, tf.resource_name = "state.optimizer.state.85.exp_avg"} loc(unknown), %arg510: tensor<768xf32> {tf.aliasing_output = 426 : i64, tf.resource_name = "state.optimizer.state.85.exp_avg_sq"} loc(unknown), %arg511: tensor<f32> {tf.aliasing_output = 427 : i64, tf.resource_name = "state.optimizer.state.85.beta1_power"} loc(unknown), %arg512: tensor<f32> {tf.aliasing_output = 428 : i64, tf.resource_name = "state.optimizer.state.85.beta2_power"} loc(unknown), %arg513: tensor<768xf32> {tf.aliasing_output = 430 : i64, tf.resource_name = "state.optimizer.state.86.exp_avg"} loc(unknown), %arg514: tensor<768xf32> {tf.aliasing_output = 431 : i64, tf.resource_name = "state.optimizer.state.86.exp_avg_sq"} loc(unknown), %arg515: tensor<f32> {tf.aliasing_output = 432 : i64, tf.resource_name = "state.optimizer.state.86.beta1_power"} loc(unknown), %arg516: tensor<f32> {tf.aliasing_output = 433 : i64, tf.resource_name = "state.optimizer.state.86.beta2_power"} loc(unknown), %arg517: tensor<768xf32> {tf.aliasing_output = 435 : i64, tf.resource_name = "state.optimizer.state.87.exp_avg"} loc(unknown), %arg518: tensor<768xf32> {tf.aliasing_output = 436 : i64, tf.resource_name = "state.optimizer.state.87.exp_avg_sq"} loc(unknown), %arg519: tensor<f32> {tf.aliasing_output = 437 : i64, tf.resource_name = "state.optimizer.state.87.beta1_power"} loc(unknown), %arg520: tensor<f32> {tf.aliasing_output = 438 : i64, tf.resource_name = "state.optimizer.state.87.beta2_power"} loc(unknown), %arg521: tensor<768xf32> {tf.aliasing_output = 440 : i64, tf.resource_name = "state.optimizer.state.88.exp_avg"} loc(unknown), %arg522: tensor<768xf32> {tf.aliasing_output = 441 : i64, tf.resource_name = "state.optimizer.state.88.exp_avg_sq"} loc(unknown), %arg523: tensor<f32> {tf.aliasing_output = 442 : i64, tf.resource_name = "state.optimizer.state.88.beta1_power"} loc(unknown), %arg524: tensor<f32> {tf.aliasing_output = 443 : i64, tf.resource_name = "state.optimizer.state.88.beta2_power"} loc(unknown), %arg525: tensor<768xf32> {tf.aliasing_output = 445 : i64, tf.resource_name = "state.optimizer.state.89.exp_avg"} loc(unknown), %arg526: tensor<768xf32> {tf.aliasing_output = 446 : i64, tf.resource_name = "state.optimizer.state.89.exp_avg_sq"} loc(unknown), %arg527: tensor<f32> {tf.aliasing_output = 447 : i64, tf.resource_name = "state.optimizer.state.89.beta1_power"} loc(unknown), %arg528: tensor<f32> {tf.aliasing_output = 448 : i64, tf.resource_name = "state.optimizer.state.89.beta2_power"} loc(unknown), %arg529: tensor<3072xf32> {tf.aliasing_output = 450 : i64, tf.resource_name = "state.optimizer.state.90.exp_avg"} loc(unknown), %arg530: tensor<3072xf32> {tf.aliasing_output = 451 : i64, tf.resource_name = "state.optimizer.state.90.exp_avg_sq"} loc(unknown), %arg531: tensor<f32> {tf.aliasing_output = 452 : i64, tf.resource_name = "state.optimizer.state.90.beta1_power"} loc(unknown), %arg532: tensor<f32> {tf.aliasing_output = 453 : i64, tf.resource_name = "state.optimizer.state.90.beta2_power"} loc(unknown), %arg533: tensor<768xf32> {tf.aliasing_output = 455 : i64, tf.resource_name = "state.optimizer.state.91.exp_avg"} loc(unknown), %arg534: tensor<768xf32> {tf.aliasing_output = 456 : i64, tf.resource_name = "state.optimizer.state.91.exp_avg_sq"} loc(unknown), %arg535: tensor<f32> {tf.aliasing_output = 457 : i64, tf.resource_name = "state.optimizer.state.91.beta1_power"} loc(unknown), %arg536: tensor<f32> {tf.aliasing_output = 458 : i64, tf.resource_name = "state.optimizer.state.91.beta2_power"} loc(unknown), %arg537: tensor<768xf32> {tf.aliasing_output = 460 : i64, tf.resource_name = "state.optimizer.state.92.exp_avg"} loc(unknown), %arg538: tensor<768xf32> {tf.aliasing_output = 461 : i64, tf.resource_name = "state.optimizer.state.92.exp_avg_sq"} loc(unknown), %arg539: tensor<f32> {tf.aliasing_output = 462 : i64, tf.resource_name = "state.optimizer.state.92.beta1_power"} loc(unknown), %arg540: tensor<f32> {tf.aliasing_output = 463 : i64, tf.resource_name = "state.optimizer.state.92.beta2_power"} loc(unknown), %arg541: tensor<768xf32> {tf.aliasing_output = 465 : i64, tf.resource_name = "state.optimizer.state.93.exp_avg"} loc(unknown), %arg542: tensor<768xf32> {tf.aliasing_output = 466 : i64, tf.resource_name = "state.optimizer.state.93.exp_avg_sq"} loc(unknown), %arg543: tensor<f32> {tf.aliasing_output = 467 : i64, tf.resource_name = "state.optimizer.state.93.beta1_power"} loc(unknown), %arg544: tensor<f32> {tf.aliasing_output = 468 : i64, tf.resource_name = "state.optimizer.state.93.beta2_power"} loc(unknown), %arg545: tensor<768xf32> {tf.aliasing_output = 470 : i64, tf.resource_name = "state.optimizer.state.94.exp_avg"} loc(unknown), %arg546: tensor<768xf32> {tf.aliasing_output = 471 : i64, tf.resource_name = "state.optimizer.state.94.exp_avg_sq"} loc(unknown), %arg547: tensor<f32> {tf.aliasing_output = 472 : i64, tf.resource_name = "state.optimizer.state.94.beta1_power"} loc(unknown), %arg548: tensor<f32> {tf.aliasing_output = 473 : i64, tf.resource_name = "state.optimizer.state.94.beta2_power"} loc(unknown), %arg549: tensor<768xf32> {tf.aliasing_output = 475 : i64, tf.resource_name = "state.optimizer.state.95.exp_avg"} loc(unknown), %arg550: tensor<768xf32> {tf.aliasing_output = 476 : i64, tf.resource_name = "state.optimizer.state.95.exp_avg_sq"} loc(unknown), %arg551: tensor<f32> {tf.aliasing_output = 477 : i64, tf.resource_name = "state.optimizer.state.95.beta1_power"} loc(unknown), %arg552: tensor<f32> {tf.aliasing_output = 478 : i64, tf.resource_name = "state.optimizer.state.95.beta2_power"} loc(unknown), %arg553: tensor<768xf32> {tf.aliasing_output = 480 : i64, tf.resource_name = "state.optimizer.state.96.exp_avg"} loc(unknown), %arg554: tensor<768xf32> {tf.aliasing_output = 481 : i64, tf.resource_name = "state.optimizer.state.96.exp_avg_sq"} loc(unknown), %arg555: tensor<f32> {tf.aliasing_output = 482 : i64, tf.resource_name = "state.optimizer.state.96.beta1_power"} loc(unknown), %arg556: tensor<f32> {tf.aliasing_output = 483 : i64, tf.resource_name = "state.optimizer.state.96.beta2_power"} loc(unknown), %arg557: tensor<768xf32> {tf.aliasing_output = 485 : i64, tf.resource_name = "state.optimizer.state.97.exp_avg"} loc(unknown), %arg558: tensor<768xf32> {tf.aliasing_output = 486 : i64, tf.resource_name = "state.optimizer.state.97.exp_avg_sq"} loc(unknown), %arg559: tensor<f32> {tf.aliasing_output = 487 : i64, tf.resource_name = "state.optimizer.state.97.beta1_power"} loc(unknown), %arg560: tensor<f32> {tf.aliasing_output = 488 : i64, tf.resource_name = "state.optimizer.state.97.beta2_power"} loc(unknown), %arg561: tensor<768xf32> {tf.aliasing_output = 490 : i64, tf.resource_name = "state.optimizer.state.98.exp_avg"} loc(unknown), %arg562: tensor<768xf32> {tf.aliasing_output = 491 : i64, tf.resource_name = "state.optimizer.state.98.exp_avg_sq"} loc(unknown), %arg563: tensor<f32> {tf.aliasing_output = 492 : i64, tf.resource_name = "state.optimizer.state.98.beta1_power"} loc(unknown), %arg564: tensor<f32> {tf.aliasing_output = 493 : i64, tf.resource_name = "state.optimizer.state.98.beta2_power"} loc(unknown), %arg565: tensor<768xf32> {tf.aliasing_output = 495 : i64, tf.resource_name = "state.optimizer.state.99.exp_avg"} loc(unknown), %arg566: tensor<768xf32> {tf.aliasing_output = 496 : i64, tf.resource_name = "state.optimizer.state.99.exp_avg_sq"} loc(unknown), %arg567: tensor<f32> {tf.aliasing_output = 497 : i64, tf.resource_name = "state.optimizer.state.99.beta1_power"} loc(unknown), %arg568: tensor<f32> {tf.aliasing_output = 498 : i64, tf.resource_name = "state.optimizer.state.99.beta2_power"} loc(unknown), %arg569: tensor<3072xf32> {tf.aliasing_output = 500 : i64, tf.resource_name = "state.optimizer.state.100.exp_avg"} loc(unknown), %arg570: tensor<3072xf32> {tf.aliasing_output = 501 : i64, tf.resource_name = "state.optimizer.state.100.exp_avg_sq"} loc(unknown), %arg571: tensor<f32> {tf.aliasing_output = 502 : i64, tf.resource_name = "state.optimizer.state.100.beta1_power"} loc(unknown), %arg572: tensor<f32> {tf.aliasing_output = 503 : i64, tf.resource_name = "state.optimizer.state.100.beta2_power"} loc(unknown), %arg573: tensor<768xf32> {tf.aliasing_output = 505 : i64, tf.resource_name = "state.optimizer.state.101.exp_avg"} loc(unknown), %arg574: tensor<768xf32> {tf.aliasing_output = 506 : i64, tf.resource_name = "state.optimizer.state.101.exp_avg_sq"} loc(unknown), %arg575: tensor<f32> {tf.aliasing_output = 507 : i64, tf.resource_name = "state.optimizer.state.101.beta1_power"} loc(unknown), %arg576: tensor<f32> {tf.aliasing_output = 508 : i64, tf.resource_name = "state.optimizer.state.101.beta2_power"} loc(unknown), %arg577: tensor<768xf32> {tf.aliasing_output = 510 : i64, tf.resource_name = "state.optimizer.state.102.exp_avg"} loc(unknown), %arg578: tensor<768xf32> {tf.aliasing_output = 511 : i64, tf.resource_name = "state.optimizer.state.102.exp_avg_sq"} loc(unknown), %arg579: tensor<f32> {tf.aliasing_output = 512 : i64, tf.resource_name = "state.optimizer.state.102.beta1_power"} loc(unknown), %arg580: tensor<f32> {tf.aliasing_output = 513 : i64, tf.resource_name = "state.optimizer.state.102.beta2_power"} loc(unknown), %arg581: tensor<768xf32> {tf.aliasing_output = 515 : i64, tf.resource_name = "state.optimizer.state.103.exp_avg"} loc(unknown), %arg582: tensor<768xf32> {tf.aliasing_output = 516 : i64, tf.resource_name = "state.optimizer.state.103.exp_avg_sq"} loc(unknown), %arg583: tensor<f32> {tf.aliasing_output = 517 : i64, tf.resource_name = "state.optimizer.state.103.beta1_power"} loc(unknown), %arg584: tensor<f32> {tf.aliasing_output = 518 : i64, tf.resource_name = "state.optimizer.state.103.beta2_power"} loc(unknown), %arg585: tensor<768xf32> {tf.aliasing_output = 520 : i64, tf.resource_name = "state.optimizer.state.104.exp_avg"} loc(unknown), %arg586: tensor<768xf32> {tf.aliasing_output = 521 : i64, tf.resource_name = "state.optimizer.state.104.exp_avg_sq"} loc(unknown), %arg587: tensor<f32> {tf.aliasing_output = 522 : i64, tf.resource_name = "state.optimizer.state.104.beta1_power"} loc(unknown), %arg588: tensor<f32> {tf.aliasing_output = 523 : i64, tf.resource_name = "state.optimizer.state.104.beta2_power"} loc(unknown), %arg589: tensor<768xf32> {tf.aliasing_output = 525 : i64, tf.resource_name = "state.optimizer.state.105.exp_avg"} loc(unknown), %arg590: tensor<768xf32> {tf.aliasing_output = 526 : i64, tf.resource_name = "state.optimizer.state.105.exp_avg_sq"} loc(unknown), %arg591: tensor<f32> {tf.aliasing_output = 527 : i64, tf.resource_name = "state.optimizer.state.105.beta1_power"} loc(unknown), %arg592: tensor<f32> {tf.aliasing_output = 528 : i64, tf.resource_name = "state.optimizer.state.105.beta2_power"} loc(unknown), %arg593: tensor<768xf32> {tf.aliasing_output = 530 : i64, tf.resource_name = "state.optimizer.state.106.exp_avg"} loc(unknown), %arg594: tensor<768xf32> {tf.aliasing_output = 531 : i64, tf.resource_name = "state.optimizer.state.106.exp_avg_sq"} loc(unknown), %arg595: tensor<f32> {tf.aliasing_output = 532 : i64, tf.resource_name = "state.optimizer.state.106.beta1_power"} loc(unknown), %arg596: tensor<f32> {tf.aliasing_output = 533 : i64, tf.resource_name = "state.optimizer.state.106.beta2_power"} loc(unknown), %arg597: tensor<768xf32> {tf.aliasing_output = 535 : i64, tf.resource_name = "state.optimizer.state.107.exp_avg"} loc(unknown), %arg598: tensor<768xf32> {tf.aliasing_output = 536 : i64, tf.resource_name = "state.optimizer.state.107.exp_avg_sq"} loc(unknown), %arg599: tensor<f32> {tf.aliasing_output = 537 : i64, tf.resource_name = "state.optimizer.state.107.beta1_power"} loc(unknown), %arg600: tensor<f32> {tf.aliasing_output = 538 : i64, tf.resource_name = "state.optimizer.state.107.beta2_power"} loc(unknown), %arg601: tensor<768xf32> {tf.aliasing_output = 540 : i64, tf.resource_name = "state.optimizer.state.108.exp_avg"} loc(unknown), %arg602: tensor<768xf32> {tf.aliasing_output = 541 : i64, tf.resource_name = "state.optimizer.state.108.exp_avg_sq"} loc(unknown), %arg603: tensor<f32> {tf.aliasing_output = 542 : i64, tf.resource_name = "state.optimizer.state.108.beta1_power"} loc(unknown), %arg604: tensor<f32> {tf.aliasing_output = 543 : i64, tf.resource_name = "state.optimizer.state.108.beta2_power"} loc(unknown), %arg605: tensor<768xf32> {tf.aliasing_output = 545 : i64, tf.resource_name = "state.optimizer.state.109.exp_avg"} loc(unknown), %arg606: tensor<768xf32> {tf.aliasing_output = 546 : i64, tf.resource_name = "state.optimizer.state.109.exp_avg_sq"} loc(unknown), %arg607: tensor<f32> {tf.aliasing_output = 547 : i64, tf.resource_name = "state.optimizer.state.109.beta1_power"} loc(unknown), %arg608: tensor<f32> {tf.aliasing_output = 548 : i64, tf.resource_name = "state.optimizer.state.109.beta2_power"} loc(unknown), %arg609: tensor<3072xf32> {tf.aliasing_output = 550 : i64, tf.resource_name = "state.optimizer.state.110.exp_avg"} loc(unknown), %arg610: tensor<3072xf32> {tf.aliasing_output = 551 : i64, tf.resource_name = "state.optimizer.state.110.exp_avg_sq"} loc(unknown), %arg611: tensor<f32> {tf.aliasing_output = 552 : i64, tf.resource_name = "state.optimizer.state.110.beta1_power"} loc(unknown), %arg612: tensor<f32> {tf.aliasing_output = 553 : i64, tf.resource_name = "state.optimizer.state.110.beta2_power"} loc(unknown), %arg613: tensor<768xf32> {tf.aliasing_output = 555 : i64, tf.resource_name = "state.optimizer.state.111.exp_avg"} loc(unknown), %arg614: tensor<768xf32> {tf.aliasing_output = 556 : i64, tf.resource_name = "state.optimizer.state.111.exp_avg_sq"} loc(unknown), %arg615: tensor<f32> {tf.aliasing_output = 557 : i64, tf.resource_name = "state.optimizer.state.111.beta1_power"} loc(unknown), %arg616: tensor<f32> {tf.aliasing_output = 558 : i64, tf.resource_name = "state.optimizer.state.111.beta2_power"} loc(unknown), %arg617: tensor<768xf32> {tf.aliasing_output = 560 : i64, tf.resource_name = "state.optimizer.state.112.exp_avg"} loc(unknown), %arg618: tensor<768xf32> {tf.aliasing_output = 561 : i64, tf.resource_name = "state.optimizer.state.112.exp_avg_sq"} loc(unknown), %arg619: tensor<f32> {tf.aliasing_output = 562 : i64, tf.resource_name = "state.optimizer.state.112.beta1_power"} loc(unknown), %arg620: tensor<f32> {tf.aliasing_output = 563 : i64, tf.resource_name = "state.optimizer.state.112.beta2_power"} loc(unknown), %arg621: tensor<768xf32> {tf.aliasing_output = 565 : i64, tf.resource_name = "state.optimizer.state.113.exp_avg"} loc(unknown), %arg622: tensor<768xf32> {tf.aliasing_output = 566 : i64, tf.resource_name = "state.optimizer.state.113.exp_avg_sq"} loc(unknown), %arg623: tensor<f32> {tf.aliasing_output = 567 : i64, tf.resource_name = "state.optimizer.state.113.beta1_power"} loc(unknown), %arg624: tensor<f32> {tf.aliasing_output = 568 : i64, tf.resource_name = "state.optimizer.state.113.beta2_power"} loc(unknown), %arg625: tensor<768xf32> {tf.aliasing_output = 570 : i64, tf.resource_name = "state.optimizer.state.114.exp_avg"} loc(unknown), %arg626: tensor<768xf32> {tf.aliasing_output = 571 : i64, tf.resource_name = "state.optimizer.state.114.exp_avg_sq"} loc(unknown), %arg627: tensor<f32> {tf.aliasing_output = 572 : i64, tf.resource_name = "state.optimizer.state.114.beta1_power"} loc(unknown), %arg628: tensor<f32> {tf.aliasing_output = 573 : i64, tf.resource_name = "state.optimizer.state.114.beta2_power"} loc(unknown), %arg629: tensor<768xf32> {tf.aliasing_output = 575 : i64, tf.resource_name = "state.optimizer.state.115.exp_avg"} loc(unknown), %arg630: tensor<768xf32> {tf.aliasing_output = 576 : i64, tf.resource_name = "state.optimizer.state.115.exp_avg_sq"} loc(unknown), %arg631: tensor<f32> {tf.aliasing_output = 577 : i64, tf.resource_name = "state.optimizer.state.115.beta1_power"} loc(unknown), %arg632: tensor<f32> {tf.aliasing_output = 578 : i64, tf.resource_name = "state.optimizer.state.115.beta2_power"} loc(unknown), %arg633: tensor<768xf32> {tf.aliasing_output = 580 : i64, tf.resource_name = "state.optimizer.state.116.exp_avg"} loc(unknown), %arg634: tensor<768xf32> {tf.aliasing_output = 581 : i64, tf.resource_name = "state.optimizer.state.116.exp_avg_sq"} loc(unknown), %arg635: tensor<f32> {tf.aliasing_output = 582 : i64, tf.resource_name = "state.optimizer.state.116.beta1_power"} loc(unknown), %arg636: tensor<f32> {tf.aliasing_output = 583 : i64, tf.resource_name = "state.optimizer.state.116.beta2_power"} loc(unknown), %arg637: tensor<768xf32> {tf.aliasing_output = 585 : i64, tf.resource_name = "state.optimizer.state.117.exp_avg"} loc(unknown), %arg638: tensor<768xf32> {tf.aliasing_output = 586 : i64, tf.resource_name = "state.optimizer.state.117.exp_avg_sq"} loc(unknown), %arg639: tensor<f32> {tf.aliasing_output = 587 : i64, tf.resource_name = "state.optimizer.state.117.beta1_power"} loc(unknown), %arg640: tensor<f32> {tf.aliasing_output = 588 : i64, tf.resource_name = "state.optimizer.state.117.beta2_power"} loc(unknown), %arg641: tensor<768xf32> {tf.aliasing_output = 590 : i64, tf.resource_name = "state.optimizer.state.118.exp_avg"} loc(unknown), %arg642: tensor<768xf32> {tf.aliasing_output = 591 : i64, tf.resource_name = "state.optimizer.state.118.exp_avg_sq"} loc(unknown), %arg643: tensor<f32> {tf.aliasing_output = 592 : i64, tf.resource_name = "state.optimizer.state.118.beta1_power"} loc(unknown), %arg644: tensor<f32> {tf.aliasing_output = 593 : i64, tf.resource_name = "state.optimizer.state.118.beta2_power"} loc(unknown), %arg645: tensor<768xf32> {tf.aliasing_output = 595 : i64, tf.resource_name = "state.optimizer.state.119.exp_avg"} loc(unknown), %arg646: tensor<768xf32> {tf.aliasing_output = 596 : i64, tf.resource_name = "state.optimizer.state.119.exp_avg_sq"} loc(unknown), %arg647: tensor<f32> {tf.aliasing_output = 597 : i64, tf.resource_name = "state.optimizer.state.119.beta1_power"} loc(unknown), %arg648: tensor<f32> {tf.aliasing_output = 598 : i64, tf.resource_name = "state.optimizer.state.119.beta2_power"} loc(unknown), %arg649: tensor<3072xf32> {tf.aliasing_output = 600 : i64, tf.resource_name = "state.optimizer.state.120.exp_avg"} loc(unknown), %arg650: tensor<3072xf32> {tf.aliasing_output = 601 : i64, tf.resource_name = "state.optimizer.state.120.exp_avg_sq"} loc(unknown), %arg651: tensor<f32> {tf.aliasing_output = 602 : i64, tf.resource_name = "state.optimizer.state.120.beta1_power"} loc(unknown), %arg652: tensor<f32> {tf.aliasing_output = 603 : i64, tf.resource_name = "state.optimizer.state.120.beta2_power"} loc(unknown), %arg653: tensor<768xf32> {tf.aliasing_output = 605 : i64, tf.resource_name = "state.optimizer.state.121.exp_avg"} loc(unknown), %arg654: tensor<768xf32> {tf.aliasing_output = 606 : i64, tf.resource_name = "state.optimizer.state.121.exp_avg_sq"} loc(unknown), %arg655: tensor<f32> {tf.aliasing_output = 607 : i64, tf.resource_name = "state.optimizer.state.121.beta1_power"} loc(unknown), %arg656: tensor<f32> {tf.aliasing_output = 608 : i64, tf.resource_name = "state.optimizer.state.121.beta2_power"} loc(unknown), %arg657: tensor<768xf32> {tf.aliasing_output = 610 : i64, tf.resource_name = "state.optimizer.state.122.exp_avg"} loc(unknown), %arg658: tensor<768xf32> {tf.aliasing_output = 611 : i64, tf.resource_name = "state.optimizer.state.122.exp_avg_sq"} loc(unknown), %arg659: tensor<f32> {tf.aliasing_output = 612 : i64, tf.resource_name = "state.optimizer.state.122.beta1_power"} loc(unknown), %arg660: tensor<f32> {tf.aliasing_output = 613 : i64, tf.resource_name = "state.optimizer.state.122.beta2_power"} loc(unknown), %arg661: tensor<768xf32> {tf.aliasing_output = 615 : i64, tf.resource_name = "state.optimizer.state.123.exp_avg"} loc(unknown), %arg662: tensor<768xf32> {tf.aliasing_output = 616 : i64, tf.resource_name = "state.optimizer.state.123.exp_avg_sq"} loc(unknown), %arg663: tensor<f32> {tf.aliasing_output = 617 : i64, tf.resource_name = "state.optimizer.state.123.beta1_power"} loc(unknown), %arg664: tensor<f32> {tf.aliasing_output = 618 : i64, tf.resource_name = "state.optimizer.state.123.beta2_power"} loc(unknown), %arg665: tensor<768xf32> {tf.aliasing_output = 620 : i64, tf.resource_name = "state.optimizer.state.124.exp_avg"} loc(unknown), %arg666: tensor<768xf32> {tf.aliasing_output = 621 : i64, tf.resource_name = "state.optimizer.state.124.exp_avg_sq"} loc(unknown), %arg667: tensor<f32> {tf.aliasing_output = 622 : i64, tf.resource_name = "state.optimizer.state.124.beta1_power"} loc(unknown), %arg668: tensor<f32> {tf.aliasing_output = 623 : i64, tf.resource_name = "state.optimizer.state.124.beta2_power"} loc(unknown), %arg669: tensor<768xf32> {tf.aliasing_output = 625 : i64, tf.resource_name = "state.optimizer.state.125.exp_avg"} loc(unknown), %arg670: tensor<768xf32> {tf.aliasing_output = 626 : i64, tf.resource_name = "state.optimizer.state.125.exp_avg_sq"} loc(unknown), %arg671: tensor<f32> {tf.aliasing_output = 627 : i64, tf.resource_name = "state.optimizer.state.125.beta1_power"} loc(unknown), %arg672: tensor<f32> {tf.aliasing_output = 628 : i64, tf.resource_name = "state.optimizer.state.125.beta2_power"} loc(unknown), %arg673: tensor<768xf32> {tf.aliasing_output = 630 : i64, tf.resource_name = "state.optimizer.state.126.exp_avg"} loc(unknown), %arg674: tensor<768xf32> {tf.aliasing_output = 631 : i64, tf.resource_name = "state.optimizer.state.126.exp_avg_sq"} loc(unknown), %arg675: tensor<f32> {tf.aliasing_output = 632 : i64, tf.resource_name = "state.optimizer.state.126.beta1_power"} loc(unknown), %arg676: tensor<f32> {tf.aliasing_output = 633 : i64, tf.resource_name = "state.optimizer.state.126.beta2_power"} loc(unknown), %arg677: tensor<768xf32> {tf.aliasing_output = 635 : i64, tf.resource_name = "state.optimizer.state.127.exp_avg"} loc(unknown), %arg678: tensor<768xf32> {tf.aliasing_output = 636 : i64, tf.resource_name = "state.optimizer.state.127.exp_avg_sq"} loc(unknown), %arg679: tensor<f32> {tf.aliasing_output = 637 : i64, tf.resource_name = "state.optimizer.state.127.beta1_power"} loc(unknown), %arg680: tensor<f32> {tf.aliasing_output = 638 : i64, tf.resource_name = "state.optimizer.state.127.beta2_power"} loc(unknown), %arg681: tensor<768xf32> {tf.aliasing_output = 640 : i64, tf.resource_name = "state.optimizer.state.128.exp_avg"} loc(unknown), %arg682: tensor<768xf32> {tf.aliasing_output = 641 : i64, tf.resource_name = "state.optimizer.state.128.exp_avg_sq"} loc(unknown), %arg683: tensor<f32> {tf.aliasing_output = 642 : i64, tf.resource_name = "state.optimizer.state.128.beta1_power"} loc(unknown), %arg684: tensor<f32> {tf.aliasing_output = 643 : i64, tf.resource_name = "state.optimizer.state.128.beta2_power"} loc(unknown), %arg685: tensor<768xf32> {tf.aliasing_output = 645 : i64, tf.resource_name = "state.optimizer.state.129.exp_avg"} loc(unknown), %arg686: tensor<768xf32> {tf.aliasing_output = 646 : i64, tf.resource_name = "state.optimizer.state.129.exp_avg_sq"} loc(unknown), %arg687: tensor<f32> {tf.aliasing_output = 647 : i64, tf.resource_name = "state.optimizer.state.129.beta1_power"} loc(unknown), %arg688: tensor<f32> {tf.aliasing_output = 648 : i64, tf.resource_name = "state.optimizer.state.129.beta2_power"} loc(unknown), %arg689: tensor<3072xf32> {tf.aliasing_output = 650 : i64, tf.resource_name = "state.optimizer.state.130.exp_avg"} loc(unknown), %arg690: tensor<3072xf32> {tf.aliasing_output = 651 : i64, tf.resource_name = "state.optimizer.state.130.exp_avg_sq"} loc(unknown), %arg691: tensor<f32> {tf.aliasing_output = 652 : i64, tf.resource_name = "state.optimizer.state.130.beta1_power"} loc(unknown), %arg692: tensor<f32> {tf.aliasing_output = 653 : i64, tf.resource_name = "state.optimizer.state.130.beta2_power"} loc(unknown), %arg693: tensor<768xf32> {tf.aliasing_output = 655 : i64, tf.resource_name = "state.optimizer.state.131.exp_avg"} loc(unknown), %arg694: tensor<768xf32> {tf.aliasing_output = 656 : i64, tf.resource_name = "state.optimizer.state.131.exp_avg_sq"} loc(unknown), %arg695: tensor<f32> {tf.aliasing_output = 657 : i64, tf.resource_name = "state.optimizer.state.131.beta1_power"} loc(unknown), %arg696: tensor<f32> {tf.aliasing_output = 658 : i64, tf.resource_name = "state.optimizer.state.131.beta2_power"} loc(unknown), %arg697: tensor<768xf32> {tf.aliasing_output = 660 : i64, tf.resource_name = "state.optimizer.state.132.exp_avg"} loc(unknown), %arg698: tensor<768xf32> {tf.aliasing_output = 661 : i64, tf.resource_name = "state.optimizer.state.132.exp_avg_sq"} loc(unknown), %arg699: tensor<f32> {tf.aliasing_output = 662 : i64, tf.resource_name = "state.optimizer.state.132.beta1_power"} loc(unknown), %arg700: tensor<f32> {tf.aliasing_output = 663 : i64, tf.resource_name = "state.optimizer.state.132.beta2_power"} loc(unknown), %arg701: tensor<768xf32> {tf.aliasing_output = 665 : i64, tf.resource_name = "state.optimizer.state.133.exp_avg"} loc(unknown), %arg702: tensor<768xf32> {tf.aliasing_output = 666 : i64, tf.resource_name = "state.optimizer.state.133.exp_avg_sq"} loc(unknown), %arg703: tensor<f32> {tf.aliasing_output = 667 : i64, tf.resource_name = "state.optimizer.state.133.beta1_power"} loc(unknown), %arg704: tensor<f32> {tf.aliasing_output = 668 : i64, tf.resource_name = "state.optimizer.state.133.beta2_power"} loc(unknown), %arg705: tensor<768xf32> {tf.aliasing_output = 670 : i64, tf.resource_name = "state.optimizer.state.134.exp_avg"} loc(unknown), %arg706: tensor<768xf32> {tf.aliasing_output = 671 : i64, tf.resource_name = "state.optimizer.state.134.exp_avg_sq"} loc(unknown), %arg707: tensor<f32> {tf.aliasing_output = 672 : i64, tf.resource_name = "state.optimizer.state.134.beta1_power"} loc(unknown), %arg708: tensor<f32> {tf.aliasing_output = 673 : i64, tf.resource_name = "state.optimizer.state.134.beta2_power"} loc(unknown), %arg709: tensor<768xf32> {tf.aliasing_output = 675 : i64, tf.resource_name = "state.optimizer.state.135.exp_avg"} loc(unknown), %arg710: tensor<768xf32> {tf.aliasing_output = 676 : i64, tf.resource_name = "state.optimizer.state.135.exp_avg_sq"} loc(unknown), %arg711: tensor<f32> {tf.aliasing_output = 677 : i64, tf.resource_name = "state.optimizer.state.135.beta1_power"} loc(unknown), %arg712: tensor<f32> {tf.aliasing_output = 678 : i64, tf.resource_name = "state.optimizer.state.135.beta2_power"} loc(unknown), %arg713: tensor<768xf32> {tf.aliasing_output = 680 : i64, tf.resource_name = "state.optimizer.state.136.exp_avg"} loc(unknown), %arg714: tensor<768xf32> {tf.aliasing_output = 681 : i64, tf.resource_name = "state.optimizer.state.136.exp_avg_sq"} loc(unknown), %arg715: tensor<f32> {tf.aliasing_output = 682 : i64, tf.resource_name = "state.optimizer.state.136.beta1_power"} loc(unknown), %arg716: tensor<f32> {tf.aliasing_output = 683 : i64, tf.resource_name = "state.optimizer.state.136.beta2_power"} loc(unknown), %arg717: tensor<768xf32> {tf.aliasing_output = 685 : i64, tf.resource_name = "state.optimizer.state.137.exp_avg"} loc(unknown), %arg718: tensor<768xf32> {tf.aliasing_output = 686 : i64, tf.resource_name = "state.optimizer.state.137.exp_avg_sq"} loc(unknown), %arg719: tensor<f32> {tf.aliasing_output = 687 : i64, tf.resource_name = "state.optimizer.state.137.beta1_power"} loc(unknown), %arg720: tensor<f32> {tf.aliasing_output = 688 : i64, tf.resource_name = "state.optimizer.state.137.beta2_power"} loc(unknown), %arg721: tensor<768xf32> {tf.aliasing_output = 690 : i64, tf.resource_name = "state.optimizer.state.138.exp_avg"} loc(unknown), %arg722: tensor<768xf32> {tf.aliasing_output = 691 : i64, tf.resource_name = "state.optimizer.state.138.exp_avg_sq"} loc(unknown), %arg723: tensor<f32> {tf.aliasing_output = 692 : i64, tf.resource_name = "state.optimizer.state.138.beta1_power"} loc(unknown), %arg724: tensor<f32> {tf.aliasing_output = 693 : i64, tf.resource_name = "state.optimizer.state.138.beta2_power"} loc(unknown), %arg725: tensor<768xf32> {tf.aliasing_output = 695 : i64, tf.resource_name = "state.optimizer.state.139.exp_avg"} loc(unknown), %arg726: tensor<768xf32> {tf.aliasing_output = 696 : i64, tf.resource_name = "state.optimizer.state.139.exp_avg_sq"} loc(unknown), %arg727: tensor<f32> {tf.aliasing_output = 697 : i64, tf.resource_name = "state.optimizer.state.139.beta1_power"} loc(unknown), %arg728: tensor<f32> {tf.aliasing_output = 698 : i64, tf.resource_name = "state.optimizer.state.139.beta2_power"} loc(unknown), %arg729: tensor<3072xf32> {tf.aliasing_output = 700 : i64, tf.resource_name = "state.optimizer.state.140.exp_avg"} loc(unknown), %arg730: tensor<3072xf32> {tf.aliasing_output = 701 : i64, tf.resource_name = "state.optimizer.state.140.exp_avg_sq"} loc(unknown), %arg731: tensor<f32> {tf.aliasing_output = 702 : i64, tf.resource_name = "state.optimizer.state.140.beta1_power"} loc(unknown), %arg732: tensor<f32> {tf.aliasing_output = 703 : i64, tf.resource_name = "state.optimizer.state.140.beta2_power"} loc(unknown), %arg733: tensor<768xf32> {tf.aliasing_output = 705 : i64, tf.resource_name = "state.optimizer.state.141.exp_avg"} loc(unknown), %arg734: tensor<768xf32> {tf.aliasing_output = 706 : i64, tf.resource_name = "state.optimizer.state.141.exp_avg_sq"} loc(unknown), %arg735: tensor<f32> {tf.aliasing_output = 707 : i64, tf.resource_name = "state.optimizer.state.141.beta1_power"} loc(unknown), %arg736: tensor<f32> {tf.aliasing_output = 708 : i64, tf.resource_name = "state.optimizer.state.141.beta2_power"} loc(unknown), %arg737: tensor<768xf32> {tf.aliasing_output = 710 : i64, tf.resource_name = "state.optimizer.state.142.exp_avg"} loc(unknown), %arg738: tensor<768xf32> {tf.aliasing_output = 711 : i64, tf.resource_name = "state.optimizer.state.142.exp_avg_sq"} loc(unknown), %arg739: tensor<f32> {tf.aliasing_output = 712 : i64, tf.resource_name = "state.optimizer.state.142.beta1_power"} loc(unknown), %arg740: tensor<f32> {tf.aliasing_output = 713 : i64, tf.resource_name = "state.optimizer.state.142.beta2_power"} loc(unknown), %arg741: tensor<768xf32> {tf.aliasing_output = 715 : i64, tf.resource_name = "state.optimizer.state.143.exp_avg"} loc(unknown), %arg742: tensor<768xf32> {tf.aliasing_output = 716 : i64, tf.resource_name = "state.optimizer.state.143.exp_avg_sq"} loc(unknown), %arg743: tensor<f32> {tf.aliasing_output = 717 : i64, tf.resource_name = "state.optimizer.state.143.beta1_power"} loc(unknown), %arg744: tensor<f32> {tf.aliasing_output = 718 : i64, tf.resource_name = "state.optimizer.state.143.beta2_power"} loc(unknown), %arg745: tensor<768xf32> {tf.aliasing_output = 720 : i64, tf.resource_name = "state.optimizer.state.144.exp_avg"} loc(unknown), %arg746: tensor<768xf32> {tf.aliasing_output = 721 : i64, tf.resource_name = "state.optimizer.state.144.exp_avg_sq"} loc(unknown), %arg747: tensor<f32> {tf.aliasing_output = 722 : i64, tf.resource_name = "state.optimizer.state.144.beta1_power"} loc(unknown), %arg748: tensor<f32> {tf.aliasing_output = 723 : i64, tf.resource_name = "state.optimizer.state.144.beta2_power"} loc(unknown), %arg749: tensor<768xf32> {tf.aliasing_output = 725 : i64, tf.resource_name = "state.optimizer.state.145.exp_avg"} loc(unknown), %arg750: tensor<768xf32> {tf.aliasing_output = 726 : i64, tf.resource_name = "state.optimizer.state.145.exp_avg_sq"} loc(unknown), %arg751: tensor<f32> {tf.aliasing_output = 727 : i64, tf.resource_name = "state.optimizer.state.145.beta1_power"} loc(unknown), %arg752: tensor<f32> {tf.aliasing_output = 728 : i64, tf.resource_name = "state.optimizer.state.145.beta2_power"} loc(unknown), %arg753: tensor<768xf32> {tf.aliasing_output = 730 : i64, tf.resource_name = "state.optimizer.state.146.exp_avg"} loc(unknown), %arg754: tensor<768xf32> {tf.aliasing_output = 731 : i64, tf.resource_name = "state.optimizer.state.146.exp_avg_sq"} loc(unknown), %arg755: tensor<f32> {tf.aliasing_output = 732 : i64, tf.resource_name = "state.optimizer.state.146.beta1_power"} loc(unknown), %arg756: tensor<f32> {tf.aliasing_output = 733 : i64, tf.resource_name = "state.optimizer.state.146.beta2_power"} loc(unknown), %arg757: tensor<768xf32> {tf.aliasing_output = 735 : i64, tf.resource_name = "state.optimizer.state.147.exp_avg"} loc(unknown), %arg758: tensor<768xf32> {tf.aliasing_output = 736 : i64, tf.resource_name = "state.optimizer.state.147.exp_avg_sq"} loc(unknown), %arg759: tensor<f32> {tf.aliasing_output = 737 : i64, tf.resource_name = "state.optimizer.state.147.beta1_power"} loc(unknown), %arg760: tensor<f32> {tf.aliasing_output = 738 : i64, tf.resource_name = "state.optimizer.state.147.beta2_power"} loc(unknown), %arg761: tensor<768xf32> {tf.aliasing_output = 740 : i64, tf.resource_name = "state.optimizer.state.148.exp_avg"} loc(unknown), %arg762: tensor<768xf32> {tf.aliasing_output = 741 : i64, tf.resource_name = "state.optimizer.state.148.exp_avg_sq"} loc(unknown), %arg763: tensor<f32> {tf.aliasing_output = 742 : i64, tf.resource_name = "state.optimizer.state.148.beta1_power"} loc(unknown), %arg764: tensor<f32> {tf.aliasing_output = 743 : i64, tf.resource_name = "state.optimizer.state.148.beta2_power"} loc(unknown), %arg765: tensor<768xf32> {tf.aliasing_output = 745 : i64, tf.resource_name = "state.optimizer.state.149.exp_avg"} loc(unknown), %arg766: tensor<768xf32> {tf.aliasing_output = 746 : i64, tf.resource_name = "state.optimizer.state.149.exp_avg_sq"} loc(unknown), %arg767: tensor<f32> {tf.aliasing_output = 747 : i64, tf.resource_name = "state.optimizer.state.149.beta1_power"} loc(unknown), %arg768: tensor<f32> {tf.aliasing_output = 748 : i64, tf.resource_name = "state.optimizer.state.149.beta2_power"} loc(unknown), %arg769: tensor<3072xf32> {tf.aliasing_output = 750 : i64, tf.resource_name = "state.optimizer.state.150.exp_avg"} loc(unknown), %arg770: tensor<3072xf32> {tf.aliasing_output = 751 : i64, tf.resource_name = "state.optimizer.state.150.exp_avg_sq"} loc(unknown), %arg771: tensor<f32> {tf.aliasing_output = 752 : i64, tf.resource_name = "state.optimizer.state.150.beta1_power"} loc(unknown), %arg772: tensor<f32> {tf.aliasing_output = 753 : i64, tf.resource_name = "state.optimizer.state.150.beta2_power"} loc(unknown), %arg773: tensor<768xf32> {tf.aliasing_output = 755 : i64, tf.resource_name = "state.optimizer.state.151.exp_avg"} loc(unknown), %arg774: tensor<768xf32> {tf.aliasing_output = 756 : i64, tf.resource_name = "state.optimizer.state.151.exp_avg_sq"} loc(unknown), %arg775: tensor<f32> {tf.aliasing_output = 757 : i64, tf.resource_name = "state.optimizer.state.151.beta1_power"} loc(unknown), %arg776: tensor<f32> {tf.aliasing_output = 758 : i64, tf.resource_name = "state.optimizer.state.151.beta2_power"} loc(unknown), %arg777: tensor<768xf32> {tf.aliasing_output = 760 : i64, tf.resource_name = "state.optimizer.state.152.exp_avg"} loc(unknown), %arg778: tensor<768xf32> {tf.aliasing_output = 761 : i64, tf.resource_name = "state.optimizer.state.152.exp_avg_sq"} loc(unknown), %arg779: tensor<f32> {tf.aliasing_output = 762 : i64, tf.resource_name = "state.optimizer.state.152.beta1_power"} loc(unknown), %arg780: tensor<f32> {tf.aliasing_output = 763 : i64, tf.resource_name = "state.optimizer.state.152.beta2_power"} loc(unknown), %arg781: tensor<768xf32> {tf.aliasing_output = 765 : i64, tf.resource_name = "state.optimizer.state.153.exp_avg"} loc(unknown), %arg782: tensor<768xf32> {tf.aliasing_output = 766 : i64, tf.resource_name = "state.optimizer.state.153.exp_avg_sq"} loc(unknown), %arg783: tensor<f32> {tf.aliasing_output = 767 : i64, tf.resource_name = "state.optimizer.state.153.beta1_power"} loc(unknown), %arg784: tensor<f32> {tf.aliasing_output = 768 : i64, tf.resource_name = "state.optimizer.state.153.beta2_power"} loc(unknown), %arg785: tensor<768xf32> {tf.aliasing_output = 770 : i64, tf.resource_name = "state.optimizer.state.154.exp_avg"} loc(unknown), %arg786: tensor<768xf32> {tf.aliasing_output = 771 : i64, tf.resource_name = "state.optimizer.state.154.exp_avg_sq"} loc(unknown), %arg787: tensor<f32> {tf.aliasing_output = 772 : i64, tf.resource_name = "state.optimizer.state.154.beta1_power"} loc(unknown), %arg788: tensor<f32> {tf.aliasing_output = 773 : i64, tf.resource_name = "state.optimizer.state.154.beta2_power"} loc(unknown), %arg789: tensor<768xf32> {tf.aliasing_output = 775 : i64, tf.resource_name = "state.optimizer.state.155.exp_avg"} loc(unknown), %arg790: tensor<768xf32> {tf.aliasing_output = 776 : i64, tf.resource_name = "state.optimizer.state.155.exp_avg_sq"} loc(unknown), %arg791: tensor<f32> {tf.aliasing_output = 777 : i64, tf.resource_name = "state.optimizer.state.155.beta1_power"} loc(unknown), %arg792: tensor<f32> {tf.aliasing_output = 778 : i64, tf.resource_name = "state.optimizer.state.155.beta2_power"} loc(unknown), %arg793: tensor<768xf32> {tf.aliasing_output = 780 : i64, tf.resource_name = "state.optimizer.state.156.exp_avg"} loc(unknown), %arg794: tensor<768xf32> {tf.aliasing_output = 781 : i64, tf.resource_name = "state.optimizer.state.156.exp_avg_sq"} loc(unknown), %arg795: tensor<f32> {tf.aliasing_output = 782 : i64, tf.resource_name = "state.optimizer.state.156.beta1_power"} loc(unknown), %arg796: tensor<f32> {tf.aliasing_output = 783 : i64, tf.resource_name = "state.optimizer.state.156.beta2_power"} loc(unknown), %arg797: tensor<768xf32> {tf.aliasing_output = 785 : i64, tf.resource_name = "state.optimizer.state.157.exp_avg"} loc(unknown), %arg798: tensor<768xf32> {tf.aliasing_output = 786 : i64, tf.resource_name = "state.optimizer.state.157.exp_avg_sq"} loc(unknown), %arg799: tensor<f32> {tf.aliasing_output = 787 : i64, tf.resource_name = "state.optimizer.state.157.beta1_power"} loc(unknown), %arg800: tensor<f32> {tf.aliasing_output = 788 : i64, tf.resource_name = "state.optimizer.state.157.beta2_power"} loc(unknown), %arg801: tensor<768xf32> {tf.aliasing_output = 790 : i64, tf.resource_name = "state.optimizer.state.158.exp_avg"} loc(unknown), %arg802: tensor<768xf32> {tf.aliasing_output = 791 : i64, tf.resource_name = "state.optimizer.state.158.exp_avg_sq"} loc(unknown), %arg803: tensor<f32> {tf.aliasing_output = 792 : i64, tf.resource_name = "state.optimizer.state.158.beta1_power"} loc(unknown), %arg804: tensor<f32> {tf.aliasing_output = 793 : i64, tf.resource_name = "state.optimizer.state.158.beta2_power"} loc(unknown), %arg805: tensor<768xf32> {tf.aliasing_output = 795 : i64, tf.resource_name = "state.optimizer.state.159.exp_avg"} loc(unknown), %arg806: tensor<768xf32> {tf.aliasing_output = 796 : i64, tf.resource_name = "state.optimizer.state.159.exp_avg_sq"} loc(unknown), %arg807: tensor<f32> {tf.aliasing_output = 797 : i64, tf.resource_name = "state.optimizer.state.159.beta1_power"} loc(unknown), %arg808: tensor<f32> {tf.aliasing_output = 798 : i64, tf.resource_name = "state.optimizer.state.159.beta2_power"} loc(unknown), %arg809: tensor<3072xf32> {tf.aliasing_output = 800 : i64, tf.resource_name = "state.optimizer.state.160.exp_avg"} loc(unknown), %arg810: tensor<3072xf32> {tf.aliasing_output = 801 : i64, tf.resource_name = "state.optimizer.state.160.exp_avg_sq"} loc(unknown), %arg811: tensor<f32> {tf.aliasing_output = 802 : i64, tf.resource_name = "state.optimizer.state.160.beta1_power"} loc(unknown), %arg812: tensor<f32> {tf.aliasing_output = 803 : i64, tf.resource_name = "state.optimizer.state.160.beta2_power"} loc(unknown), %arg813: tensor<768xf32> {tf.aliasing_output = 805 : i64, tf.resource_name = "state.optimizer.state.161.exp_avg"} loc(unknown), %arg814: tensor<768xf32> {tf.aliasing_output = 806 : i64, tf.resource_name = "state.optimizer.state.161.exp_avg_sq"} loc(unknown), %arg815: tensor<f32> {tf.aliasing_output = 807 : i64, tf.resource_name = "state.optimizer.state.161.beta1_power"} loc(unknown), %arg816: tensor<f32> {tf.aliasing_output = 808 : i64, tf.resource_name = "state.optimizer.state.161.beta2_power"} loc(unknown), %arg817: tensor<768xf32> {tf.aliasing_output = 810 : i64, tf.resource_name = "state.optimizer.state.162.exp_avg"} loc(unknown), %arg818: tensor<768xf32> {tf.aliasing_output = 811 : i64, tf.resource_name = "state.optimizer.state.162.exp_avg_sq"} loc(unknown), %arg819: tensor<f32> {tf.aliasing_output = 812 : i64, tf.resource_name = "state.optimizer.state.162.beta1_power"} loc(unknown), %arg820: tensor<f32> {tf.aliasing_output = 813 : i64, tf.resource_name = "state.optimizer.state.162.beta2_power"} loc(unknown), %arg821: tensor<768xf32> {tf.aliasing_output = 815 : i64, tf.resource_name = "state.optimizer.state.163.exp_avg"} loc(unknown), %arg822: tensor<768xf32> {tf.aliasing_output = 816 : i64, tf.resource_name = "state.optimizer.state.163.exp_avg_sq"} loc(unknown), %arg823: tensor<f32> {tf.aliasing_output = 817 : i64, tf.resource_name = "state.optimizer.state.163.beta1_power"} loc(unknown), %arg824: tensor<f32> {tf.aliasing_output = 818 : i64, tf.resource_name = "state.optimizer.state.163.beta2_power"} loc(unknown)) -> (tensor<50257x768xf32>, tensor<50257x768xf32>, tensor<f32>, tensor<f32>, tensor<50257x768xf32>, tensor<2048x768xf32>, tensor<2048x768xf32>, tensor<f32>, tensor<f32>, tensor<2048x768xf32>, tensor<768x768xf32>, tensor<768x768xf32>, tensor<f32>, tensor<f32>, tensor<768x768xf32>, tensor<768x768xf32>, tensor<768x768xf32>, tensor<f32>, tensor<f32>, tensor<768x768xf32>, tensor<768x768xf32>, tensor<768x768xf32>, tensor<f32>, tensor<f32>, tensor<768x768xf32>, tensor<768x768xf32>, tensor<768x768xf32>, tensor<f32>, tensor<f32>, tensor<768x768xf32>, tensor<3072x768xf32>, tensor<3072x768xf32>, tensor<f32>, tensor<f32>, tensor<3072x768xf32>, tensor<768x3072xf32>, tensor<768x3072xf32>, tensor<f32>, tensor<f32>, tensor<768x3072xf32>, tensor<768x768xf32>, tensor<768x768xf32>, tensor<f32>, tensor<f32>, tensor<768x768xf32>, tensor<768x768xf32>, tensor<768x768xf32>, tensor<f32>, tensor<f32>, tensor<768x768xf32>, tensor<768x768xf32>, tensor<768x768xf32>, tensor<f32>, tensor<f32>, tensor<768x768xf32>, tensor<768x768xf32>, tensor<768x768xf32>, tensor<f32>, tensor<f32>, tensor<768x768xf32>, tensor<3072x768xf32>, tensor<3072x768xf32>, tensor<f32>, tensor<f32>, tensor<3072x768xf32>, tensor<768x3072xf32>, tensor<768x3072xf32>, tensor<f32>, tensor<f32>, tensor<768x3072xf32>, tensor<768x768xf32>, tensor<768x768xf32>, tensor<f32>, tensor<f32>, tensor<768x768xf32>, tensor<768x768xf32>, tensor<768x768xf32>, tensor<f32>, tensor<f32>, tensor<768x768xf32>, tensor<768x768xf32>, tensor<768x768xf32>, tensor<f32>, tensor<f32>, tensor<768x768xf32>, tensor<768x768xf32>, tensor<768x768xf32>, tensor<f32>, tensor<f32>, tensor<768x768xf32>, tensor<3072x768xf32>, tensor<3072x768xf32>, tensor<f32>, tensor<f32>, tensor<3072x768xf32>, tensor<768x3072xf32>, tensor<768x3072xf32>, tensor<f32>, tensor<f32>, tensor<768x3072xf32>, tensor<768x768xf32>, tensor<768x768xf32>, tensor<f32>, tensor<f32>, tensor<768x768xf32>, tensor<768x768xf32>, tensor<768x768xf32>, tensor<f32>, tensor<f32>, tensor<768x768xf32>, tensor<768x768xf32>, tensor<768x768xf32>, tensor<f32>, tensor<f32>, tensor<768x768xf32>, tensor<768x768xf32>, tensor<768x768xf32>, tensor<f32>, tensor<f32>, tensor<768x768xf32>, tensor<3072x768xf32>, tensor<3072x768xf32>, tensor<f32>, tensor<f32>, tensor<3072x768xf32>, tensor<768x3072xf32>, tensor<768x3072xf32>, tensor<f32>, tensor<f32>, tensor<768x3072xf32>, tensor<768x768xf32>, tensor<768x768xf32>, tensor<f32>, tensor<f32>, tensor<768x768xf32>, tensor<768x768xf32>, tensor<768x768xf32>, tensor<f32>, tensor<f32>, tensor<768x768xf32>, tensor<768x768xf32>, tensor<768x768xf32>, tensor<f32>, tensor<f32>, tensor<768x768xf32>, tensor<768x768xf32>, tensor<768x768xf32>, tensor<f32>, tensor<f32>, tensor<768x768xf32>, tensor<3072x768xf32>, tensor<3072x768xf32>, tensor<f32>, tensor<f32>, tensor<3072x768xf32>, tensor<768x3072xf32>, tensor<768x3072xf32>, tensor<f32>, tensor<f32>, tensor<768x3072xf32>, tensor<768x768xf32>, tensor<768x768xf32>, tensor<f32>, tensor<f32>, tensor<768x768xf32>, tensor<768x768xf32>, tensor<768x768xf32>, tensor<f32>, tensor<f32>, tensor<768x768xf32>, tensor<768x768xf32>, tensor<768x768xf32>, tensor<f32>, tensor<f32>, tensor<768x768xf32>, tensor<768x768xf32>, tensor<768x768xf32>, tensor<f32>, tensor<f32>, tensor<768x768xf32>, tensor<3072x768xf32>, tensor<3072x768xf32>, tensor<f32>, tensor<f32>, tensor<3072x768xf32>, tensor<768x3072xf32>, tensor<768x3072xf32>, tensor<f32>, tensor<f32>, tensor<768x3072xf32>, tensor<768x768xf32>, tensor<768x768xf32>, tensor<f32>, tensor<f32>, tensor<768x768xf32>, tensor<768x768xf32>, tensor<768x768xf32>, tensor<f32>, tensor<f32>, tensor<768x768xf32>, tensor<768x768xf32>, tensor<768x768xf32>, tensor<f32>, tensor<f32>, tensor<768x768xf32>, tensor<768x768xf32>, tensor<768x768xf32>, tensor<f32>, tensor<f32>, tensor<768x768xf32>, tensor<3072x768xf32>, tensor<3072x768xf32>, tensor<f32>, tensor<f32>, tensor<3072x768xf32>, tensor<768x3072xf32>, tensor<768x3072xf32>, tensor<f32>, tensor<f32>, tensor<768x3072xf32>, tensor<768x768xf32>, tensor<768x768xf32>, tensor<f32>, tensor<f32>, tensor<768x768xf32>, tensor<768x768xf32>, tensor<768x768xf32>, tensor<f32>, tensor<f32>, tensor<768x768xf32>, tensor<768x768xf32>, tensor<768x768xf32>, tensor<f32>, tensor<f32>, tensor<768x768xf32>, tensor<768x768xf32>, tensor<768x768xf32>, tensor<f32>, tensor<f32>, tensor<768x768xf32>, tensor<3072x768xf32>, tensor<3072x768xf32>, tensor<f32>, tensor<f32>, tensor<3072x768xf32>, tensor<768x3072xf32>, tensor<768x3072xf32>, tensor<f32>, tensor<f32>, tensor<768x3072xf32>, tensor<768x768xf32>, tensor<768x768xf32>, tensor<f32>, tensor<f32>, tensor<768x768xf32>, tensor<768x768xf32>, tensor<768x768xf32>, tensor<f32>, tensor<f32>, tensor<768x768xf32>, tensor<768x768xf32>, tensor<768x768xf32>, tensor<f32>, tensor<f32>, tensor<768x768xf32>, tensor<768x768xf32>, tensor<768x768xf32>, tensor<f32>, tensor<f32>, tensor<768x768xf32>, tensor<3072x768xf32>, tensor<3072x768xf32>, tensor<f32>, tensor<f32>, tensor<3072x768xf32>, tensor<768x3072xf32>, tensor<768x3072xf32>, tensor<f32>, tensor<f32>, tensor<768x3072xf32>, tensor<768x768xf32>, tensor<768x768xf32>, tensor<f32>, tensor<f32>, tensor<768x768xf32>, tensor<768x768xf32>, tensor<768x768xf32>, tensor<f32>, tensor<f32>, tensor<768x768xf32>, tensor<768x768xf32>, tensor<768x768xf32>, tensor<f32>, tensor<f32>, tensor<768x768xf32>, tensor<768x768xf32>, tensor<768x768xf32>, tensor<f32>, tensor<f32>, tensor<768x768xf32>, tensor<3072x768xf32>, tensor<3072x768xf32>, tensor<f32>, tensor<f32>, tensor<3072x768xf32>, tensor<768x3072xf32>, tensor<768x3072xf32>, tensor<f32>, tensor<f32>, tensor<768x3072xf32>, tensor<768xf32>, tensor<768xf32>, tensor<f32>, tensor<f32>, tensor<768xf32>, tensor<768xf32>, tensor<768xf32>, tensor<f32>, tensor<f32>, tensor<768xf32>, tensor<768xf32>, tensor<768xf32>, tensor<f32>, tensor<f32>, tensor<768xf32>, tensor<768xf32>, tensor<768xf32>, tensor<f32>, tensor<f32>, tensor<768xf32>, tensor<768xf32>, tensor<768xf32>, tensor<f32>, tensor<f32>, tensor<768xf32>, tensor<768xf32>, tensor<768xf32>, tensor<f32>, tensor<f32>, tensor<768xf32>, tensor<768xf32>, tensor<768xf32>, tensor<f32>, tensor<f32>, tensor<768xf32>, tensor<768xf32>, tensor<768xf32>, tensor<f32>, tensor<f32>, tensor<768xf32>, tensor<3072xf32>, tensor<3072xf32>, tensor<f32>, tensor<f32>, tensor<3072xf32>, tensor<768xf32>, tensor<768xf32>, tensor<f32>, tensor<f32>, tensor<768xf32>, tensor<768xf32>, tensor<768xf32>, tensor<f32>, tensor<f32>, tensor<768xf32>, tensor<768xf32>, tensor<768xf32>, tensor<f32>, tensor<f32>, tensor<768xf32>, tensor<768xf32>, tensor<768xf32>, tensor<f32>, tensor<f32>, tensor<768xf32>, tensor<768xf32>, tensor<768xf32>, tensor<f32>, tensor<f32>, tensor<768xf32>, tensor<768xf32>, tensor<768xf32>, tensor<f32>, tensor<f32>, tensor<768xf32>, tensor<768xf32>, tensor<768xf32>, tensor<f32>, tensor<f32>, tensor<768xf32>, tensor<768xf32>, tensor<768xf32>, tensor<f32>, tensor<f32>, tensor<768xf32>, tensor<768xf32>, tensor<768xf32>, tensor<f32>, tensor<f32>, tensor<768xf32>, tensor<3072xf32>, tensor<3072xf32>, tensor<f32>, tensor<f32>, tensor<3072xf32>, tensor<768xf32>, tensor<768xf32>, tensor<f32>, tensor<f32>, tensor<768xf32>, tensor<768xf32>, tensor<768xf32>, tensor<f32>, tensor<f32>, tensor<768xf32>, tensor<768xf32>, tensor<768xf32>, tensor<f32>, tensor<f32>, tensor<768xf32>, tensor<768xf32>, tensor<768xf32>, tensor<f32>, tensor<f32>, tensor<768xf32>, tensor<768xf32>, tensor<768xf32>, tensor<f32>, tensor<f32>, tensor<768xf32>, tensor<768xf32>, tensor<768xf32>, tensor<f32>, tensor<f32>, tensor<768xf32>, tensor<768xf32>, tensor<768xf32>, tensor<f32>, tensor<f32>, tensor<768xf32>, tensor<768xf32>, tensor<768xf32>, tensor<f32>, tensor<f32>, tensor<768xf32>, tensor<768xf32>, tensor<768xf32>, tensor<f32>, tensor<f32>, tensor<768xf32>, tensor<3072xf32>, tensor<3072xf32>, tensor<f32>, tensor<f32>, tensor<3072xf32>, tensor<768xf32>, tensor<768xf32>, tensor<f32>, tensor<f32>, tensor<768xf32>, tensor<768xf32>, tensor<768xf32>, tensor<f32>, tensor<f32>, tensor<768xf32>, tensor<768xf32>, tensor<768xf32>, tensor<f32>, tensor<f32>, tensor<768xf32>, tensor<768xf32>, tensor<768xf32>, tensor<f32>, tensor<f32>, tensor<768xf32>, tensor<768xf32>, tensor<768xf32>, tensor<f32>, tensor<f32>, tensor<768xf32>, tensor<768xf32>, tensor<768xf32>, tensor<f32>, tensor<f32>, tensor<768xf32>, tensor<768xf32>, tensor<768xf32>, tensor<f32>, tensor<f32>, tensor<768xf32>, tensor<768xf32>, tensor<768xf32>, tensor<f32>, tensor<f32>, tensor<768xf32>, tensor<768xf32>, tensor<768xf32>, tensor<f32>, tensor<f32>, tensor<768xf32>, tensor<3072xf32>, tensor<3072xf32>, tensor<f32>, tensor<f32>, tensor<3072xf32>, tensor<768xf32>, tensor<768xf32>, tensor<f32>, tensor<f32>, tensor<768xf32>, tensor<768xf32>, tensor<768xf32>, tensor<f32>, tensor<f32>, tensor<768xf32>, tensor<768xf32>, tensor<768xf32>, tensor<f32>, tensor<f32>, tensor<768xf32>, tensor<768xf32>, tensor<768xf32>, tensor<f32>, tensor<f32>, tensor<768xf32>, tensor<768xf32>, tensor<768xf32>, tensor<f32>, tensor<f32>, tensor<768xf32>, tensor<768xf32>, tensor<768xf32>, tensor<f32>, tensor<f32>, tensor<768xf32>, tensor<768xf32>, tensor<768xf32>, tensor<f32>, tensor<f32>, tensor<768xf32>, tensor<768xf32>, tensor<768xf32>, tensor<f32>, tensor<f32>, tensor<768xf32>, tensor<768xf32>, tensor<768xf32>, tensor<f32>, tensor<f32>, tensor<768xf32>, tensor<3072xf32>, tensor<3072xf32>, tensor<f32>, tensor<f32>, tensor<3072xf32>, tensor<768xf32>, tensor<768xf32>, tensor<f32>, tensor<f32>, tensor<768xf32>, tensor<768xf32>, tensor<768xf32>, tensor<f32>, tensor<f32>, tensor<768xf32>, tensor<768xf32>, tensor<768xf32>, tensor<f32>, tensor<f32>, tensor<768xf32>, tensor<768xf32>, tensor<768xf32>, tensor<f32>, tensor<f32>, tensor<768xf32>, tensor<768xf32>, tensor<768xf32>, tensor<f32>, tensor<f32>, tensor<768xf32>, tensor<768xf32>, tensor<768xf32>, tensor<f32>, tensor<f32>, tensor<768xf32>, tensor<768xf32>, tensor<768xf32>, tensor<f32>, tensor<f32>, tensor<768xf32>, tensor<768xf32>, tensor<768xf32>, tensor<f32>, tensor<f32>, tensor<768xf32>, tensor<768xf32>, tensor<768xf32>, tensor<f32>, tensor<f32>, tensor<768xf32>, tensor<3072xf32>, tensor<3072xf32>, tensor<f32>, tensor<f32>, tensor<3072xf32>, tensor<768xf32>, tensor<768xf32>, tensor<f32>, tensor<f32>, tensor<768xf32>, tensor<768xf32>, tensor<768xf32>, tensor<f32>, tensor<f32>, tensor<768xf32>, tensor<768xf32>, tensor<768xf32>, tensor<f32>, tensor<f32>, tensor<768xf32>, tensor<768xf32>, tensor<768xf32>, tensor<f32>, tensor<f32>, tensor<768xf32>, tensor<768xf32>, tensor<768xf32>, tensor<f32>, tensor<f32>, tensor<768xf32>, tensor<768xf32>, tensor<768xf32>, tensor<f32>, tensor<f32>, tensor<768xf32>, tensor<768xf32>, tensor<768xf32>, tensor<f32>, tensor<f32>, tensor<768xf32>, tensor<768xf32>, tensor<768xf32>, tensor<f32>, tensor<f32>, tensor<768xf32>, tensor<768xf32>, tensor<768xf32>, tensor<f32>, tensor<f32>, tensor<768xf32>, tensor<3072xf32>, tensor<3072xf32>, tensor<f32>, tensor<f32>, tensor<3072xf32>, tensor<768xf32>, tensor<768xf32>, tensor<f32>, tensor<f32>, tensor<768xf32>, tensor<768xf32>, tensor<768xf32>, tensor<f32>, tensor<f32>, tensor<768xf32>, tensor<768xf32>, tensor<768xf32>, tensor<f32>, tensor<f32>, tensor<768xf32>, tensor<768xf32>, tensor<768xf32>, tensor<f32>, tensor<f32>, tensor<768xf32>, tensor<768xf32>, tensor<768xf32>, tensor<f32>, tensor<f32>, tensor<768xf32>, tensor<768xf32>, tensor<768xf32>, tensor<f32>, tensor<f32>, tensor<768xf32>, tensor<768xf32>, tensor<768xf32>, tensor<f32>, tensor<f32>, tensor<768xf32>, tensor<768xf32>, tensor<768xf32>, tensor<f32>, tensor<f32>, tensor<768xf32>, tensor<768xf32>, tensor<768xf32>, tensor<f32>, tensor<f32>, tensor<768xf32>, tensor<3072xf32>, tensor<3072xf32>, tensor<f32>, tensor<f32>, tensor<3072xf32>, tensor<768xf32>, tensor<768xf32>, tensor<f32>, tensor<f32>, tensor<768xf32>, tensor<768xf32>, tensor<768xf32>, tensor<f32>, tensor<f32>, tensor<768xf32>, tensor<768xf32>, tensor<768xf32>, tensor<f32>, tensor<f32>, tensor<768xf32>, tensor<768xf32>, tensor<768xf32>, tensor<f32>, tensor<f32>, tensor<768xf32>, tensor<768xf32>, tensor<768xf32>, tensor<f32>, tensor<f32>, tensor<768xf32>, tensor<768xf32>, tensor<768xf32>, tensor<f32>, tensor<f32>, tensor<768xf32>, tensor<768xf32>, tensor<768xf32>, tensor<f32>, tensor<f32>, tensor<768xf32>, tensor<768xf32>, tensor<768xf32>, tensor<f32>, tensor<f32>, tensor<768xf32>, tensor<768xf32>, tensor<768xf32>, tensor<f32>, tensor<f32>, tensor<768xf32>, tensor<3072xf32>, tensor<3072xf32>, tensor<f32>, tensor<f32>, tensor<3072xf32>, tensor<768xf32>, tensor<768xf32>, tensor<f32>, tensor<f32>, tensor<768xf32>, tensor<768xf32>, tensor<768xf32>, tensor<f32>, tensor<f32>, tensor<768xf32>, tensor<768xf32>, tensor<768xf32>, tensor<f32>, tensor<f32>, tensor<768xf32>, tensor<768xf32>, tensor<768xf32>, tensor<f32>, tensor<f32>, tensor<768xf32>, tensor<768xf32>, tensor<768xf32>, tensor<f32>, tensor<f32>, tensor<768xf32>, tensor<768xf32>, tensor<768xf32>, tensor<f32>, tensor<f32>, tensor<768xf32>, tensor<768xf32>, tensor<768xf32>, tensor<f32>, tensor<f32>, tensor<768xf32>, tensor<768xf32>, tensor<768xf32>, tensor<f32>, tensor<f32>, tensor<768xf32>, tensor<768xf32>, tensor<768xf32>, tensor<f32>, tensor<f32>, tensor<768xf32>, tensor<3072xf32>, tensor<3072xf32>, tensor<f32>, tensor<f32>, tensor<3072xf32>, tensor<768xf32>, tensor<768xf32>, tensor<f32>, tensor<f32>, tensor<768xf32>, tensor<768xf32>, tensor<768xf32>, tensor<f32>, tensor<f32>, tensor<768xf32>, tensor<768xf32>, tensor<768xf32>, tensor<f32>, tensor<f32>, tensor<768xf32>, tensor<i64>, tensor<i64>, tensor<i64>, tensor<f32> {cs.output_name = "output_values_1"}, tensor<bf16> {cs.output_name = "output_loss"}) {
    %cst = cirh.Const dense<9.99999993E-9> : tensor<3072xf32> loc(#loc1)
    %cst_0 = cirh.Const dense<0.0500000119> : tensor<3072xf32> loc(#loc2)
    %cst_1 = cirh.Const dense<0.949999988> : tensor<3072xf32> loc(#loc2)
    %cst_2 = cirh.Const dense<0.100000024> : tensor<3072xf32> loc(#loc3)
    %cst_3 = cirh.Const dense<0.899999976> : tensor<3072xf32> loc(#loc3)
    %cst_4 = cirh.Const dense<9.99999993E-9> : tensor<768xf32> loc(#loc1)
    %cst_5 = cirh.Const dense<0.0500000119> : tensor<768xf32> loc(#loc2)
    %cst_6 = cirh.Const dense<0.949999988> : tensor<768xf32> loc(#loc2)
    %cst_7 = cirh.Const dense<0.100000024> : tensor<768xf32> loc(#loc3)
    %cst_8 = cirh.Const dense<0.899999976> : tensor<768xf32> loc(#loc3)
    %cst_9 = cirh.Const dense<1.000000e-01> : tensor<768x3072xf32> loc(#loc4)
    %cst_10 = cirh.Const dense<9.99999993E-9> : tensor<768x3072xf32> loc(#loc1)
    %cst_11 = cirh.Const dense<0.0500000119> : tensor<768x3072xf32> loc(#loc2)
    %cst_12 = cirh.Const dense<0.949999988> : tensor<768x3072xf32> loc(#loc2)
    %cst_13 = cirh.Const dense<0.100000024> : tensor<768x3072xf32> loc(#loc3)
    %cst_14 = cirh.Const dense<0.899999976> : tensor<768x3072xf32> loc(#loc3)
    %cst_15 = cirh.Const dense<1.000000e-01> : tensor<3072x768xf32> loc(#loc4)
    %cst_16 = cirh.Const dense<9.99999993E-9> : tensor<3072x768xf32> loc(#loc1)
    %cst_17 = cirh.Const dense<0.0500000119> : tensor<3072x768xf32> loc(#loc2)
    %cst_18 = cirh.Const dense<0.949999988> : tensor<3072x768xf32> loc(#loc2)
    %cst_19 = cirh.Const dense<0.100000024> : tensor<3072x768xf32> loc(#loc3)
    %cst_20 = cirh.Const dense<0.899999976> : tensor<3072x768xf32> loc(#loc3)
    %cst_21 = cirh.Const dense<1.000000e-01> : tensor<768x768xf32> loc(#loc4)
    %cst_22 = cirh.Const dense<9.99999993E-9> : tensor<768x768xf32> loc(#loc1)
    %cst_23 = cirh.Const dense<0.0500000119> : tensor<768x768xf32> loc(#loc2)
    %cst_24 = cirh.Const dense<0.949999988> : tensor<768x768xf32> loc(#loc2)
    %cst_25 = cirh.Const dense<0.100000024> : tensor<768x768xf32> loc(#loc3)
    %cst_26 = cirh.Const dense<0.899999976> : tensor<768x768xf32> loc(#loc3)
    %cst_27 = cirh.Const dense<1.000000e-01> : tensor<2048x768xf32> loc(#loc4)
    %cst_28 = cirh.Const dense<9.99999993E-9> : tensor<2048x768xf32> loc(#loc1)
    %cst_29 = cirh.Const dense<0.0500000119> : tensor<2048x768xf32> loc(#loc2)
    %cst_30 = cirh.Const dense<0.949999988> : tensor<2048x768xf32> loc(#loc2)
    %cst_31 = cirh.Const dense<0.100000024> : tensor<2048x768xf32> loc(#loc3)
    %cst_32 = cirh.Const dense<0.899999976> : tensor<2048x768xf32> loc(#loc3)
    %cst_33 = cirh.Const dense<1.000000e-01> : tensor<50257x768xf32> loc(#loc4)
    %cst_34 = cirh.Const dense<9.99999993E-9> : tensor<50257x768xf32> loc(#loc1)
    %cst_35 = cirh.Const dense<1.525000e+03> : tensor<f32> loc(#loc5)
    %cst_36 = cirh.Const dense<1.000000e+00> : tensor<f32> loc(#loc6)
    %cst_37 = cirh.Const dense<0.0500000119> : tensor<50257x768xf32> loc(#loc2)
    %cst_38 = cirh.Const dense<0.949999988> : tensor<50257x768xf32> loc(#loc2)
    %cst_39 = cirh.Const dense<0.100000024> : tensor<50257x768xf32> loc(#loc3)
    %cst_40 = cirh.Const dense<0.899999976> : tensor<50257x768xf32> loc(#loc3)
    %cst_41 = cirh.Const dense<0xFF800000> : tensor<f32> loc(#loc7)
    %cst_42 = cirh.Const dense<50257> : tensor<245760xi32> loc(#loc8)
    %cst_43 = cirh.Const dense<0> : tensor<245760xi32> loc(#loc8)
    %cst_44 = cirh.Const dense<[50257, 768]> : tensor<2xi64> loc(#loc8)
    %cst_45 = cirh.Const dense<-1> : tensor<245760xi32> loc(#loc8)
    %cst_46 = cirh.Const dense<2048> : tensor<245760xi64> loc(#loc9)
    %cst_47 = cirh.Const dense<0> : tensor<245760xi64> loc(#loc9)
    %cst_48 = cirh.Const dense<[2048, 768]> : tensor<2xi64> loc(#loc9)
    %cst_49 = cirh.Const dense<0.000000e+00> : tensor<245760x768xf32> loc(#loc9)
    %cst_50 = cirh.Const dense<-1> : tensor<245760xi64> loc(#loc9)
    %cst_51 = cirh.Const dense<4.06901063E-6> : tensor<245760x50257xf32> loc(#loc6)
    %cst_52 = cirh.Const dense<2.457600e+05> : tensor<f32> loc(#loc10)
    %cst_53 = cirh.Const dense<1.250000e-01> : tensor<120x12x2048x64xbf16> loc(#loc11)
    %cst_54 = cirh.Const dense<-3.389530e+38> : tensor<1x1x2048x2048xbf16> loc(#loc12)
    %cst_55 = cirh.Const dense<-1> : tensor<i64> loc(#loc13)
    %cst_56 = cirh.Const dense<1.000000e+00> : tensor<2048x2048xbf16> loc(#loc14)
    %cst_57 = cirh.Const dense<[0, 2, 1, 3]> : tensor<4xi64> loc(#loc15)
    %cst_58 = cirh.Const dense<0> : tensor<i64> loc(#loc13)
    %cst_59 = cirh.Const dense<1> : tensor<i64> loc(#loc0)
    %cst_60 = cirh.Const dense<1525> : tensor<i64> loc(#loc0)
    %cst_61 = cirh.Const dense<-6.000000e-04> : tensor<f32> loc(#loc0)
    %cst_62 = cirh.Const dense<6.000000e-04> : tensor<f32> loc(#loc0)
    %cst_63 = cirh.Const dense<4.18209907E-4> : tensor<f32> loc(#loc0)
    %cst_64 = cirh.Const dense<7.512000e+03> : tensor<f32> loc(#loc0)
    %cst_65 = cirh.Const dense<5.000000e-01> : tensor<f32> loc(#loc0)
    %cst_66 = cirh.Const dense<5.400000e-04> : tensor<f32> loc(#loc0)
    %cst_67 = cirh.Const dense<6.000000e-05> : tensor<f32> loc(#loc0)
    %cst_68 = cirh.Const dense<0.949999988> : tensor<f32> loc(#loc0)
    %cst_69 = cirh.Const dense<0.899999976> : tensor<f32> loc(#loc0)
    %cst_70 = cirh.Const dense<2048> : tensor<i64> loc(#loc0)
    %cst_71 = cirh.Const dense<9.99999997E-7> : tensor<f32> loc(#loc0)
    %0 = cirh.Cast %arg2 {Truncate = false} : tensor<768x3072xf32> -> tensor<768x3072xbf16> loc(#loc16)
    %1 = cirh.Cast %arg3 {Truncate = false} : tensor<3072x768xf32> -> tensor<3072x768xbf16> loc(#loc17)
    %2 = cirh.Cast %arg6 {Truncate = false} : tensor<768x768xf32> -> tensor<768x768xbf16> loc(#loc18)
    %3 = cirh.Cast %arg7 {Truncate = false} : tensor<768x768xf32> -> tensor<768x768xbf16> loc(#loc19)
    %4 = cirh.Cast %arg10 {Truncate = false} : tensor<768x3072xf32> -> tensor<768x3072xbf16> loc(#loc20)
    %5 = cirh.Cast %arg11 {Truncate = false} : tensor<3072x768xf32> -> tensor<3072x768xbf16> loc(#loc21)
    %6 = cirh.Cast %arg14 {Truncate = false} : tensor<768x768xf32> -> tensor<768x768xbf16> loc(#loc22)
    %7 = cirh.Cast %arg15 {Truncate = false} : tensor<768x768xf32> -> tensor<768x768xbf16> loc(#loc23)
    %8 = cirh.Cast %arg18 {Truncate = false} : tensor<768x3072xf32> -> tensor<768x3072xbf16> loc(#loc24)
    %9 = cirh.Cast %arg19 {Truncate = false} : tensor<3072x768xf32> -> tensor<3072x768xbf16> loc(#loc25)
    %10 = cirh.Cast %arg22 {Truncate = false} : tensor<768x768xf32> -> tensor<768x768xbf16> loc(#loc26)
    %11 = cirh.Cast %arg23 {Truncate = false} : tensor<768x768xf32> -> tensor<768x768xbf16> loc(#loc27)
    %12 = cirh.Cast %arg26 {Truncate = false} : tensor<768x3072xf32> -> tensor<768x3072xbf16> loc(#loc28)
    %13 = cirh.Cast %arg27 {Truncate = false} : tensor<3072x768xf32> -> tensor<3072x768xbf16> loc(#loc29)
    %14 = cirh.Cast %arg30 {Truncate = false} : tensor<768x768xf32> -> tensor<768x768xbf16> loc(#loc30)
    %15 = cirh.Cast %arg31 {Truncate = false} : tensor<768x768xf32> -> tensor<768x768xbf16> loc(#loc31)
    %16 = cirh.Cast %arg34 {Truncate = false} : tensor<768x3072xf32> -> tensor<768x3072xbf16> loc(#loc32)
    %17 = cirh.Cast %arg35 {Truncate = false} : tensor<3072x768xf32> -> tensor<3072x768xbf16> loc(#loc33)
    %18 = cirh.Cast %arg38 {Truncate = false} : tensor<768x768xf32> -> tensor<768x768xbf16> loc(#loc34)
    %19 = cirh.Cast %arg39 {Truncate = false} : tensor<768x768xf32> -> tensor<768x768xbf16> loc(#loc35)
    %20 = cirh.Cast %arg42 {Truncate = false} : tensor<768x3072xf32> -> tensor<768x3072xbf16> loc(#loc36)
    %21 = cirh.Cast %arg43 {Truncate = false} : tensor<3072x768xf32> -> tensor<3072x768xbf16> loc(#loc37)
    %22 = cirh.Cast %arg46 {Truncate = false} : tensor<768x768xf32> -> tensor<768x768xbf16> loc(#loc38)
    %23 = cirh.Cast %arg47 {Truncate = false} : tensor<768x768xf32> -> tensor<768x768xbf16> loc(#loc39)
    %24 = cirh.Cast %arg50 {Truncate = false} : tensor<768x3072xf32> -> tensor<768x3072xbf16> loc(#loc40)
    %25 = cirh.Cast %arg51 {Truncate = false} : tensor<3072x768xf32> -> tensor<3072x768xbf16> loc(#loc41)
    %26 = cirh.Cast %arg54 {Truncate = false} : tensor<768x768xf32> -> tensor<768x768xbf16> loc(#loc42)
    %27 = cirh.Cast %arg55 {Truncate = false} : tensor<768x768xf32> -> tensor<768x768xbf16> loc(#loc43)
    %28 = cirh.Cast %arg58 {Truncate = false} : tensor<768x3072xf32> -> tensor<768x3072xbf16> loc(#loc44)
    %29 = cirh.Cast %arg59 {Truncate = false} : tensor<3072x768xf32> -> tensor<3072x768xbf16> loc(#loc45)
    %30 = cirh.Cast %arg62 {Truncate = false} : tensor<768x768xf32> -> tensor<768x768xbf16> loc(#loc46)
    %31 = cirh.Cast %arg63 {Truncate = false} : tensor<768x768xf32> -> tensor<768x768xbf16> loc(#loc47)
    %32 = cirh.Cast %arg66 {Truncate = false} : tensor<768x3072xf32> -> tensor<768x3072xbf16> loc(#loc48)
    %33 = cirh.Cast %arg67 {Truncate = false} : tensor<3072x768xf32> -> tensor<3072x768xbf16> loc(#loc49)
    %34 = cirh.Cast %arg70 {Truncate = false} : tensor<768x768xf32> -> tensor<768x768xbf16> loc(#loc50)
    %35 = cirh.Cast %arg71 {Truncate = false} : tensor<768x768xf32> -> tensor<768x768xbf16> loc(#loc51)
    %36 = cirh.Cast %arg74 {Truncate = false} : tensor<768x3072xf32> -> tensor<768x3072xbf16> loc(#loc52)
    %37 = cirh.Cast %arg75 {Truncate = false} : tensor<3072x768xf32> -> tensor<3072x768xbf16> loc(#loc53)
    %38 = cirh.Cast %arg78 {Truncate = false} : tensor<768x768xf32> -> tensor<768x768xbf16> loc(#loc54)
    %39 = cirh.Cast %arg79 {Truncate = false} : tensor<768x768xf32> -> tensor<768x768xbf16> loc(#loc55)
    %40 = cirh.Arange %cst_58, %cst_70, %cst_59 {dim = 0 : i64} : (tensor<i64>, tensor<i64>, tensor<i64>) -> tensor<2048xi64> loc(#loc56)
    %41 = cirh.BroadcastInDim %40 {broadcast_dimensions = dense<1> : tensor<1xi64>} : (tensor<2048xi64>) -> tensor<120x2048xi64> loc(#loc56)
    %42 = cirh.Reshape %41 : (tensor<120x2048xi64>) -> tensor<245760xi64> loc(#loc57)
    %43 = cirh.Gather %arg82, %42 {axis = 0 : i64, batch_dims = 0 : i64, is_sparse = false} : (tensor<2048x768xf32>, tensor<245760xi64>) -> tensor<245760x768xf32> loc(#loc57)
    %44 = cirh.Reshape %43 : (tensor<245760x768xf32>) -> tensor<120x2048x768xf32> loc(#loc57)
    %45 = cirh.Cast %44 {Truncate = false} : tensor<120x2048x768xf32> -> tensor<120x2048x768xbf16> loc(#loc58)
    %46 = cirh.Reshape %arg83 : (tensor<120x2048xi32>) -> tensor<245760xi32> loc(#loc59)
    %47 = cirh.Gather %arg84, %46 {axis = 0 : i64, batch_dims = 0 : i64, is_sparse = false} : (tensor<50257x768xf32>, tensor<245760xi32>) -> tensor<245760x768xf32> loc(#loc59)
    %48 = cirh.Reshape %47 : (tensor<245760x768xf32>) -> tensor<120x2048x768xf32> loc(#loc59)
    %49 = cirh.Cast %48 {Truncate = false} : tensor<120x2048x768xf32> -> tensor<120x2048x768xbf16> loc(#loc60)
    %50 = cirh.Add %49, %45 : tensor<120x2048x768xbf16> loc(#loc61)
    %51 = cirh.Cast %50 {Truncate = false} : tensor<120x2048x768xbf16> -> tensor<120x2048x768xf32> loc(#loc62)
    %52 = cirh.LayerNorm %51, %arg80, %arg81 {epsilon = 9.99999974E-6 : f32} : (tensor<120x2048x768xf32>, tensor<768xf32>, tensor<768xf32>) -> tensor<120x2048x768xf32> loc(#loc63)
    %53 = cirh.Cast %52 {Truncate = false} : tensor<120x2048x768xf32> -> tensor<120x2048x768xbf16> loc(#loc64)
    %54 = cirh.Reshape %53 : (tensor<120x2048x768xbf16>) -> tensor<245760x768xbf16> loc(#loc65)
    %55 = cirh.Cast %arg85 {Truncate = false} : tensor<768xf32> -> tensor<768xbf16> loc(#loc55)
    %56 = cirh.MatMul %54, %39 {transpose_a = false, transpose_b = true} : (tensor<245760x768xbf16>, tensor<768x768xbf16>) -> tensor<245760x768xbf16> loc(#loc65)
    %57 = cirh.BroadcastInDim %55 {broadcast_dimensions = dense<1> : tensor<1xi64>} : (tensor<768xbf16>) -> tensor<245760x768xbf16> loc(#loc65)
    %58 = cirh.Add %57, %56 : tensor<245760x768xbf16> loc(#loc65)
    %59 = cirh.Reshape %58 : (tensor<245760x768xbf16>) -> tensor<120x2048x768xbf16> loc(#loc65)
    %60 = cirh.Reshape %59 : (tensor<120x2048x768xbf16>) -> tensor<120x2048x12x64xbf16> loc(#loc15)
    %61 = cirh.Transpose %60, %cst_57 : (tensor<120x2048x12x64xbf16>, tensor<4xi64>) -> tensor<120x12x2048x64xbf16> loc(#loc15)
    %62 = cirh.MatrixBandPart %cst_56, %cst_55, %cst_58 : (tensor<2048x2048xbf16>, tensor<i64>, tensor<i64>) -> tensor<2048x2048xbf16> loc(#loc13)
    %63 = cirh.Sub %cst_56, %62 : tensor<2048x2048xbf16> loc(#loc13)
    %64 = cirh.Reshape %63 : (tensor<2048x2048xbf16>) -> tensor<1x2048x2048xbf16> loc(#loc13)
    %65 = cirh.Reshape %64 : (tensor<1x2048x2048xbf16>) -> tensor<1x1x2048x2048xbf16> loc(#loc13)
    %66 = cirh.Mul %65, %cst_54 : tensor<1x1x2048x2048xbf16> loc(#loc12)
    %67 = cirh.Reshape %66 : (tensor<1x1x2048x2048xbf16>) -> tensor<1x2048x2048xbf16> loc(#loc12)
    %68 = cirh.Reshape %67 : (tensor<1x2048x2048xbf16>) -> tensor<2048x2048xbf16> loc(#loc12)
    %69 = cirh.Reshape %68 : (tensor<2048x2048xbf16>) -> tensor<1x2048x2048xbf16> loc(#loc12)
    %70 = cirh.Reshape %69 : (tensor<1x2048x2048xbf16>) -> tensor<1x1x2048x2048xbf16> loc(#loc12)
    %71 = cirh.Cast %arg86 {Truncate = false} : tensor<768x768xf32> -> tensor<768x768xbf16> loc(#loc66)
    %72 = cirh.Cast %arg87 {Truncate = false} : tensor<768xf32> -> tensor<768xbf16> loc(#loc66)
    %73 = cirh.MatMul %54, %71 {transpose_a = false, transpose_b = true} : (tensor<245760x768xbf16>, tensor<768x768xbf16>) -> tensor<245760x768xbf16> loc(#loc67)
    %74 = cirh.BroadcastInDim %72 {broadcast_dimensions = dense<1> : tensor<1xi64>} : (tensor<768xbf16>) -> tensor<245760x768xbf16> loc(#loc67)
    %75 = cirh.Add %74, %73 : tensor<245760x768xbf16> loc(#loc67)
    %76 = cirh.Reshape %75 : (tensor<245760x768xbf16>) -> tensor<120x2048x768xbf16> loc(#loc67)
    %77 = cirh.Reshape %76 : (tensor<120x2048x768xbf16>) -> tensor<120x2048x12x64xbf16> loc(#loc68)
    %78 = cirh.Transpose %77, %cst_57 : (tensor<120x2048x12x64xbf16>, tensor<4xi64>) -> tensor<120x12x2048x64xbf16> loc(#loc68)
    %79 = cirh.Cast %arg88 {Truncate = false} : tensor<768x768xf32> -> tensor<768x768xbf16> loc(#loc69)
    %80 = cirh.Cast %arg89 {Truncate = false} : tensor<768xf32> -> tensor<768xbf16> loc(#loc69)
    %81 = cirh.MatMul %54, %79 {transpose_a = false, transpose_b = true} : (tensor<245760x768xbf16>, tensor<768x768xbf16>) -> tensor<245760x768xbf16> loc(#loc70)
    %82 = cirh.BroadcastInDim %80 {broadcast_dimensions = dense<1> : tensor<1xi64>} : (tensor<768xbf16>) -> tensor<245760x768xbf16> loc(#loc70)
    %83 = cirh.Add %82, %81 : tensor<245760x768xbf16> loc(#loc70)
    %84 = cirh.Reshape %83 : (tensor<245760x768xbf16>) -> tensor<120x2048x768xbf16> loc(#loc70)
    %85 = cirh.Reshape %84 : (tensor<120x2048x768xbf16>) -> tensor<120x2048x12x64xbf16> loc(#loc71)
    %86 = cirh.Transpose %85, %cst_57 : (tensor<120x2048x12x64xbf16>, tensor<4xi64>) -> tensor<120x12x2048x64xbf16> loc(#loc71)
    %87 = cirh.Mul %86, %cst_53 : tensor<120x12x2048x64xbf16> loc(#loc11)
    %88 = cirh.DotGeneral %87, %78 {lhs_batching_dimensions = dense<[0, 1]> : tensor<2xi64>, lhs_contracting_dimensions = dense<3> : tensor<1xi64>, rhs_batching_dimensions = dense<[0, 1]> : tensor<2xi64>, rhs_contracting_dimensions = dense<3> : tensor<1xi64>} : (tensor<120x12x2048x64xbf16>, tensor<120x12x2048x64xbf16>) -> tensor<120x12x2048x2048xbf16> loc(#loc72)
    %89 = cirh.BroadcastInDim %70 {broadcast_dimensions = dense<[0, 1, 2, 3]> : tensor<4xi64>} : (tensor<1x1x2048x2048xbf16>) -> tensor<120x12x2048x2048xbf16> loc(#loc73)
    %90 = cirh.Add %88, %89 : tensor<120x12x2048x2048xbf16> loc(#loc73)
    %91 = cirh.Reshape %90 : (tensor<120x12x2048x2048xbf16>) -> tensor<1440x2048x2048xbf16> loc(#loc73)
    %92 = cirh.Reshape %91 : (tensor<1440x2048x2048xbf16>) -> tensor<120x12x2048x2048xbf16> loc(#loc73)
    %93 = cirh.Cast %92 {Truncate = false} : tensor<120x12x2048x2048xbf16> -> tensor<120x12x2048x2048xf32> loc(#loc74)
    %94 = cirh.Softmax %93 {axis = 3 : i64} : tensor<120x12x2048x2048xf32> loc(#loc75)
    %95 = cirh.Cast %94 {Truncate = false} : tensor<120x12x2048x2048xf32> -> tensor<120x12x2048x2048xbf16> loc(#loc74)
    %96 = cirh.DotGeneral %95, %61 {lhs_batching_dimensions = dense<[0, 1]> : tensor<2xi64>, lhs_contracting_dimensions = dense<3> : tensor<1xi64>, rhs_batching_dimensions = dense<[0, 1]> : tensor<2xi64>, rhs_contracting_dimensions = dense<2> : tensor<1xi64>} : (tensor<120x12x2048x2048xbf16>, tensor<120x12x2048x64xbf16>) -> tensor<120x12x2048x64xbf16> loc(#loc76)
    %97 = cirh.Transpose %96, %cst_57 : (tensor<120x12x2048x64xbf16>, tensor<4xi64>) -> tensor<120x2048x12x64xbf16> loc(#loc77)
    %98 = cirh.Reshape %97 : (tensor<120x2048x12x64xbf16>) -> tensor<120x2048x768xbf16> loc(#loc77)
    %99 = cirh.Reshape %98 : (tensor<120x2048x768xbf16>) -> tensor<245760x768xbf16> loc(#loc78)
    %100 = cirh.Cast %arg90 {Truncate = false} : tensor<768xf32> -> tensor<768xbf16> loc(#loc54)
    %101 = cirh.MatMul %99, %38 {transpose_a = false, transpose_b = true} : (tensor<245760x768xbf16>, tensor<768x768xbf16>) -> tensor<245760x768xbf16> loc(#loc78)
    %102 = cirh.BroadcastInDim %100 {broadcast_dimensions = dense<1> : tensor<1xi64>} : (tensor<768xbf16>) -> tensor<245760x768xbf16> loc(#loc78)
    %103 = cirh.Add %102, %101 : tensor<245760x768xbf16> loc(#loc78)
    %104 = cirh.Reshape %103 : (tensor<245760x768xbf16>) -> tensor<120x2048x768xbf16> loc(#loc78)
    %105 = cirh.Add %50, %104 : tensor<120x2048x768xbf16> loc(#loc79)
    %106 = cirh.Cast %105 {Truncate = false} : tensor<120x2048x768xbf16> -> tensor<120x2048x768xf32> loc(#loc80)
    %107 = cirh.LayerNorm %106, %arg76, %arg77 {epsilon = 9.99999974E-6 : f32} : (tensor<120x2048x768xf32>, tensor<768xf32>, tensor<768xf32>) -> tensor<120x2048x768xf32> loc(#loc81)
    %108 = cirh.Cast %107 {Truncate = false} : tensor<120x2048x768xf32> -> tensor<120x2048x768xbf16> loc(#loc82)
    %109 = cirh.Reshape %108 : (tensor<120x2048x768xbf16>) -> tensor<245760x768xbf16> loc(#loc83)
    %110 = cirh.Cast %arg91 {Truncate = false} : tensor<3072xf32> -> tensor<3072xbf16> loc(#loc53)
    %111 = cirh.MatMul %109, %37 {transpose_a = false, transpose_b = true} : (tensor<245760x768xbf16>, tensor<3072x768xbf16>) -> tensor<245760x3072xbf16> loc(#loc83)
    %112 = cirh.BroadcastInDim %110 {broadcast_dimensions = dense<1> : tensor<1xi64>} : (tensor<3072xbf16>) -> tensor<245760x3072xbf16> loc(#loc83)
    %113 = cirh.Add %112, %111 : tensor<245760x3072xbf16> loc(#loc83)
    %114 = cirh.Reshape %113 : (tensor<245760x3072xbf16>) -> tensor<120x2048x3072xbf16> loc(#loc83)
    %115 = cirh.Gelu %114 {approximation = "NONE"} : tensor<120x2048x3072xbf16> loc(#loc84)
    %116 = cirh.Reshape %115 : (tensor<120x2048x3072xbf16>) -> tensor<245760x3072xbf16> loc(#loc85)
    %117 = cirh.Cast %arg92 {Truncate = false} : tensor<768xf32> -> tensor<768xbf16> loc(#loc52)
    %118 = cirh.MatMul %116, %36 {transpose_a = false, transpose_b = true} : (tensor<245760x3072xbf16>, tensor<768x3072xbf16>) -> tensor<245760x768xbf16> loc(#loc85)
    %119 = cirh.BroadcastInDim %117 {broadcast_dimensions = dense<1> : tensor<1xi64>} : (tensor<768xbf16>) -> tensor<245760x768xbf16> loc(#loc85)
    %120 = cirh.Add %119, %118 : tensor<245760x768xbf16> loc(#loc85)
    %121 = cirh.Reshape %120 : (tensor<245760x768xbf16>) -> tensor<120x2048x768xbf16> loc(#loc85)
    %122 = cirh.Add %105, %121 : tensor<120x2048x768xbf16> loc(#loc86)
    %123 = cirh.Cast %122 {Truncate = false} : tensor<120x2048x768xbf16> -> tensor<120x2048x768xf32> loc(#loc87)
    %124 = cirh.LayerNorm %123, %arg72, %arg73 {epsilon = 9.99999974E-6 : f32} : (tensor<120x2048x768xf32>, tensor<768xf32>, tensor<768xf32>) -> tensor<120x2048x768xf32> loc(#loc88)
    %125 = cirh.Cast %124 {Truncate = false} : tensor<120x2048x768xf32> -> tensor<120x2048x768xbf16> loc(#loc89)
    %126 = cirh.Reshape %125 : (tensor<120x2048x768xbf16>) -> tensor<245760x768xbf16> loc(#loc90)
    %127 = cirh.Cast %arg93 {Truncate = false} : tensor<768xf32> -> tensor<768xbf16> loc(#loc51)
    %128 = cirh.MatMul %126, %35 {transpose_a = false, transpose_b = true} : (tensor<245760x768xbf16>, tensor<768x768xbf16>) -> tensor<245760x768xbf16> loc(#loc90)
    %129 = cirh.BroadcastInDim %127 {broadcast_dimensions = dense<1> : tensor<1xi64>} : (tensor<768xbf16>) -> tensor<245760x768xbf16> loc(#loc90)
    %130 = cirh.Add %129, %128 : tensor<245760x768xbf16> loc(#loc90)
    %131 = cirh.Reshape %130 : (tensor<245760x768xbf16>) -> tensor<120x2048x768xbf16> loc(#loc90)
    %132 = cirh.Reshape %131 : (tensor<120x2048x768xbf16>) -> tensor<120x2048x12x64xbf16> loc(#loc15)
    %133 = cirh.Transpose %132, %cst_57 : (tensor<120x2048x12x64xbf16>, tensor<4xi64>) -> tensor<120x12x2048x64xbf16> loc(#loc15)
    %134 = cirh.Cast %arg94 {Truncate = false} : tensor<768x768xf32> -> tensor<768x768xbf16> loc(#loc91)
    %135 = cirh.Cast %arg95 {Truncate = false} : tensor<768xf32> -> tensor<768xbf16> loc(#loc91)
    %136 = cirh.MatMul %126, %134 {transpose_a = false, transpose_b = true} : (tensor<245760x768xbf16>, tensor<768x768xbf16>) -> tensor<245760x768xbf16> loc(#loc92)
    %137 = cirh.BroadcastInDim %135 {broadcast_dimensions = dense<1> : tensor<1xi64>} : (tensor<768xbf16>) -> tensor<245760x768xbf16> loc(#loc92)
    %138 = cirh.Add %137, %136 : tensor<245760x768xbf16> loc(#loc92)
    %139 = cirh.Reshape %138 : (tensor<245760x768xbf16>) -> tensor<120x2048x768xbf16> loc(#loc92)
    %140 = cirh.Reshape %139 : (tensor<120x2048x768xbf16>) -> tensor<120x2048x12x64xbf16> loc(#loc68)
    %141 = cirh.Transpose %140, %cst_57 : (tensor<120x2048x12x64xbf16>, tensor<4xi64>) -> tensor<120x12x2048x64xbf16> loc(#loc68)
    %142 = cirh.Cast %arg96 {Truncate = false} : tensor<768x768xf32> -> tensor<768x768xbf16> loc(#loc93)
    %143 = cirh.Cast %arg97 {Truncate = false} : tensor<768xf32> -> tensor<768xbf16> loc(#loc93)
    %144 = cirh.MatMul %126, %142 {transpose_a = false, transpose_b = true} : (tensor<245760x768xbf16>, tensor<768x768xbf16>) -> tensor<245760x768xbf16> loc(#loc94)
    %145 = cirh.BroadcastInDim %143 {broadcast_dimensions = dense<1> : tensor<1xi64>} : (tensor<768xbf16>) -> tensor<245760x768xbf16> loc(#loc94)
    %146 = cirh.Add %145, %144 : tensor<245760x768xbf16> loc(#loc94)
    %147 = cirh.Reshape %146 : (tensor<245760x768xbf16>) -> tensor<120x2048x768xbf16> loc(#loc94)
    %148 = cirh.Reshape %147 : (tensor<120x2048x768xbf16>) -> tensor<120x2048x12x64xbf16> loc(#loc71)
    %149 = cirh.Transpose %148, %cst_57 : (tensor<120x2048x12x64xbf16>, tensor<4xi64>) -> tensor<120x12x2048x64xbf16> loc(#loc71)
    %150 = cirh.Mul %149, %cst_53 : tensor<120x12x2048x64xbf16> loc(#loc11)
    %151 = cirh.DotGeneral %150, %141 {lhs_batching_dimensions = dense<[0, 1]> : tensor<2xi64>, lhs_contracting_dimensions = dense<3> : tensor<1xi64>, rhs_batching_dimensions = dense<[0, 1]> : tensor<2xi64>, rhs_contracting_dimensions = dense<3> : tensor<1xi64>} : (tensor<120x12x2048x64xbf16>, tensor<120x12x2048x64xbf16>) -> tensor<120x12x2048x2048xbf16> loc(#loc72)
    %152 = cirh.Add %151, %89 : tensor<120x12x2048x2048xbf16> loc(#loc73)
    %153 = cirh.Reshape %152 : (tensor<120x12x2048x2048xbf16>) -> tensor<1440x2048x2048xbf16> loc(#loc73)
    %154 = cirh.Reshape %153 : (tensor<1440x2048x2048xbf16>) -> tensor<120x12x2048x2048xbf16> loc(#loc73)
    %155 = cirh.Cast %154 {Truncate = false} : tensor<120x12x2048x2048xbf16> -> tensor<120x12x2048x2048xf32> loc(#loc74)
    %156 = cirh.Softmax %155 {axis = 3 : i64} : tensor<120x12x2048x2048xf32> loc(#loc75)
    %157 = cirh.Cast %156 {Truncate = false} : tensor<120x12x2048x2048xf32> -> tensor<120x12x2048x2048xbf16> loc(#loc74)
    %158 = cirh.DotGeneral %157, %133 {lhs_batching_dimensions = dense<[0, 1]> : tensor<2xi64>, lhs_contracting_dimensions = dense<3> : tensor<1xi64>, rhs_batching_dimensions = dense<[0, 1]> : tensor<2xi64>, rhs_contracting_dimensions = dense<2> : tensor<1xi64>} : (tensor<120x12x2048x2048xbf16>, tensor<120x12x2048x64xbf16>) -> tensor<120x12x2048x64xbf16> loc(#loc76)
    %159 = cirh.Transpose %158, %cst_57 : (tensor<120x12x2048x64xbf16>, tensor<4xi64>) -> tensor<120x2048x12x64xbf16> loc(#loc77)
    %160 = cirh.Reshape %159 : (tensor<120x2048x12x64xbf16>) -> tensor<120x2048x768xbf16> loc(#loc77)
    %161 = cirh.Reshape %160 : (tensor<120x2048x768xbf16>) -> tensor<245760x768xbf16> loc(#loc95)
    %162 = cirh.Cast %arg98 {Truncate = false} : tensor<768xf32> -> tensor<768xbf16> loc(#loc50)
    %163 = cirh.MatMul %161, %34 {transpose_a = false, transpose_b = true} : (tensor<245760x768xbf16>, tensor<768x768xbf16>) -> tensor<245760x768xbf16> loc(#loc95)
    %164 = cirh.BroadcastInDim %162 {broadcast_dimensions = dense<1> : tensor<1xi64>} : (tensor<768xbf16>) -> tensor<245760x768xbf16> loc(#loc95)
    %165 = cirh.Add %164, %163 : tensor<245760x768xbf16> loc(#loc95)
    %166 = cirh.Reshape %165 : (tensor<245760x768xbf16>) -> tensor<120x2048x768xbf16> loc(#loc95)
    %167 = cirh.Add %122, %166 : tensor<120x2048x768xbf16> loc(#loc79)
    %168 = cirh.Cast %167 {Truncate = false} : tensor<120x2048x768xbf16> -> tensor<120x2048x768xf32> loc(#loc96)
    %169 = cirh.LayerNorm %168, %arg68, %arg69 {epsilon = 9.99999974E-6 : f32} : (tensor<120x2048x768xf32>, tensor<768xf32>, tensor<768xf32>) -> tensor<120x2048x768xf32> loc(#loc97)
    %170 = cirh.Cast %169 {Truncate = false} : tensor<120x2048x768xf32> -> tensor<120x2048x768xbf16> loc(#loc98)
    %171 = cirh.Reshape %170 : (tensor<120x2048x768xbf16>) -> tensor<245760x768xbf16> loc(#loc99)
    %172 = cirh.Cast %arg99 {Truncate = false} : tensor<3072xf32> -> tensor<3072xbf16> loc(#loc49)
    %173 = cirh.MatMul %171, %33 {transpose_a = false, transpose_b = true} : (tensor<245760x768xbf16>, tensor<3072x768xbf16>) -> tensor<245760x3072xbf16> loc(#loc99)
    %174 = cirh.BroadcastInDim %172 {broadcast_dimensions = dense<1> : tensor<1xi64>} : (tensor<3072xbf16>) -> tensor<245760x3072xbf16> loc(#loc99)
    %175 = cirh.Add %174, %173 : tensor<245760x3072xbf16> loc(#loc99)
    %176 = cirh.Reshape %175 : (tensor<245760x3072xbf16>) -> tensor<120x2048x3072xbf16> loc(#loc99)
    %177 = cirh.Gelu %176 {approximation = "NONE"} : tensor<120x2048x3072xbf16> loc(#loc84)
    %178 = cirh.Reshape %177 : (tensor<120x2048x3072xbf16>) -> tensor<245760x3072xbf16> loc(#loc100)
    %179 = cirh.Cast %arg100 {Truncate = false} : tensor<768xf32> -> tensor<768xbf16> loc(#loc48)
    %180 = cirh.MatMul %178, %32 {transpose_a = false, transpose_b = true} : (tensor<245760x3072xbf16>, tensor<768x3072xbf16>) -> tensor<245760x768xbf16> loc(#loc100)
    %181 = cirh.BroadcastInDim %179 {broadcast_dimensions = dense<1> : tensor<1xi64>} : (tensor<768xbf16>) -> tensor<245760x768xbf16> loc(#loc100)
    %182 = cirh.Add %181, %180 : tensor<245760x768xbf16> loc(#loc100)
    %183 = cirh.Reshape %182 : (tensor<245760x768xbf16>) -> tensor<120x2048x768xbf16> loc(#loc100)
    %184 = cirh.Add %167, %183 : tensor<120x2048x768xbf16> loc(#loc86)
    %185 = cirh.Cast %184 {Truncate = false} : tensor<120x2048x768xbf16> -> tensor<120x2048x768xf32> loc(#loc101)
    %186 = cirh.LayerNorm %185, %arg64, %arg65 {epsilon = 9.99999974E-6 : f32} : (tensor<120x2048x768xf32>, tensor<768xf32>, tensor<768xf32>) -> tensor<120x2048x768xf32> loc(#loc102)
    %187 = cirh.Cast %186 {Truncate = false} : tensor<120x2048x768xf32> -> tensor<120x2048x768xbf16> loc(#loc103)
    %188 = cirh.Reshape %187 : (tensor<120x2048x768xbf16>) -> tensor<245760x768xbf16> loc(#loc104)
    %189 = cirh.Cast %arg101 {Truncate = false} : tensor<768xf32> -> tensor<768xbf16> loc(#loc47)
    %190 = cirh.MatMul %188, %31 {transpose_a = false, transpose_b = true} : (tensor<245760x768xbf16>, tensor<768x768xbf16>) -> tensor<245760x768xbf16> loc(#loc104)
    %191 = cirh.BroadcastInDim %189 {broadcast_dimensions = dense<1> : tensor<1xi64>} : (tensor<768xbf16>) -> tensor<245760x768xbf16> loc(#loc104)
    %192 = cirh.Add %191, %190 : tensor<245760x768xbf16> loc(#loc104)
    %193 = cirh.Reshape %192 : (tensor<245760x768xbf16>) -> tensor<120x2048x768xbf16> loc(#loc104)
    %194 = cirh.Reshape %193 : (tensor<120x2048x768xbf16>) -> tensor<120x2048x12x64xbf16> loc(#loc15)
    %195 = cirh.Transpose %194, %cst_57 : (tensor<120x2048x12x64xbf16>, tensor<4xi64>) -> tensor<120x12x2048x64xbf16> loc(#loc15)
    %196 = cirh.Cast %arg102 {Truncate = false} : tensor<768x768xf32> -> tensor<768x768xbf16> loc(#loc105)
    %197 = cirh.Cast %arg103 {Truncate = false} : tensor<768xf32> -> tensor<768xbf16> loc(#loc105)
    %198 = cirh.MatMul %188, %196 {transpose_a = false, transpose_b = true} : (tensor<245760x768xbf16>, tensor<768x768xbf16>) -> tensor<245760x768xbf16> loc(#loc106)
    %199 = cirh.BroadcastInDim %197 {broadcast_dimensions = dense<1> : tensor<1xi64>} : (tensor<768xbf16>) -> tensor<245760x768xbf16> loc(#loc106)
    %200 = cirh.Add %199, %198 : tensor<245760x768xbf16> loc(#loc106)
    %201 = cirh.Reshape %200 : (tensor<245760x768xbf16>) -> tensor<120x2048x768xbf16> loc(#loc106)
    %202 = cirh.Reshape %201 : (tensor<120x2048x768xbf16>) -> tensor<120x2048x12x64xbf16> loc(#loc68)
    %203 = cirh.Transpose %202, %cst_57 : (tensor<120x2048x12x64xbf16>, tensor<4xi64>) -> tensor<120x12x2048x64xbf16> loc(#loc68)
    %204 = cirh.Cast %arg104 {Truncate = false} : tensor<768x768xf32> -> tensor<768x768xbf16> loc(#loc107)
    %205 = cirh.Cast %arg105 {Truncate = false} : tensor<768xf32> -> tensor<768xbf16> loc(#loc107)
    %206 = cirh.MatMul %188, %204 {transpose_a = false, transpose_b = true} : (tensor<245760x768xbf16>, tensor<768x768xbf16>) -> tensor<245760x768xbf16> loc(#loc108)
    %207 = cirh.BroadcastInDim %205 {broadcast_dimensions = dense<1> : tensor<1xi64>} : (tensor<768xbf16>) -> tensor<245760x768xbf16> loc(#loc108)
…
#loc244 = loc("decoder.7.ln_2.bwd"(callsite("backward"("torch/autograd/__init__.py":200:0) at callsite("backward"("torch/_tensor.py":487:0) at callsite("training_step"("train.py":117:0) at callsite("generated_trace_fn"("cerebras_pytorch/core/compile.py":139:0) at callsite("main"("train.py":161:0) at "<module>"("train.py":170:0))))))))
#loc245 = loc("decoder.7.attn.proj_output.bwd"(callsite("backward"("torch/autograd/__init__.py":200:0) at callsite("backward"("torch/_tensor.py":487:0) at callsite("training_step"("train.py":117:0) at callsite("generated_trace_fn"("cerebras_pytorch/core/compile.py":139:0) at callsite("main"("train.py":161:0) at "<module>"("train.py":170:0))))))))
#loc246 = loc("decoder.7.attn.dropout_layer.bwd"(callsite("backward"("torch/autograd/__init__.py":200:0) at callsite("backward"("torch/_tensor.py":487:0) at callsite("training_step"("train.py":117:0) at callsite("generated_trace_fn"("cerebras_pytorch/core/compile.py":139:0) at callsite("main"("train.py":161:0) at "<module>"("train.py":170:0))))))))
#loc247 = loc("decoder.7.attn.proj_k.bwd"(callsite("backward"("torch/autograd/__init__.py":200:0) at callsite("backward"("torch/_tensor.py":487:0) at callsite("training_step"("train.py":117:0) at callsite("generated_trace_fn"("cerebras_pytorch/core/compile.py":139:0) at callsite("main"("train.py":161:0) at "<module>"("train.py":170:0))))))))
#loc248 = loc("decoder.7.attn.proj_q.bwd"(callsite("backward"("torch/autograd/__init__.py":200:0) at callsite("backward"("torch/_tensor.py":487:0) at callsite("training_step"("train.py":117:0) at callsite("generated_trace_fn"("cerebras_pytorch/core/compile.py":139:0) at callsite("main"("train.py":161:0) at "<module>"("train.py":170:0))))))))
#loc249 = loc("decoder.7.attn.proj_v.bwd"(callsite("backward"("torch/autograd/__init__.py":200:0) at callsite("backward"("torch/_tensor.py":487:0) at callsite("training_step"("train.py":117:0) at callsite("generated_trace_fn"("cerebras_pytorch/core/compile.py":139:0) at callsite("main"("train.py":161:0) at "<module>"("train.py":170:0))))))))
#loc250 = loc("decoder.7.ln_1.bwd"(callsite("backward"("torch/autograd/__init__.py":200:0) at callsite("backward"("torch/_tensor.py":487:0) at callsite("training_step"("train.py":117:0) at callsite("generated_trace_fn"("cerebras_pytorch/core/compile.py":139:0) at callsite("main"("train.py":161:0) at "<module>"("train.py":170:0))))))))
#loc251 = loc("decoder.6.ffn.proj.bwd"(callsite("backward"("torch/autograd/__init__.py":200:0) at callsite("backward"("torch/_tensor.py":487:0) at callsite("training_step"("train.py":117:0) at callsite("generated_trace_fn"("cerebras_pytorch/core/compile.py":139:0) at callsite("main"("train.py":161:0) at "<module>"("train.py":170:0))))))))
#loc252 = loc("decoder.6.ffn.fc.bwd"(callsite("backward"("torch/autograd/__init__.py":200:0) at callsite("backward"("torch/_tensor.py":487:0) at callsite("training_step"("train.py":117:0) at callsite("generated_trace_fn"("cerebras_pytorch/core/compile.py":139:0) at callsite("main"("train.py":161:0) at "<module>"("train.py":170:0))))))))
#loc253 = loc("decoder.6.ln_2.bwd"(callsite("backward"("torch/autograd/__init__.py":200:0) at callsite("backward"("torch/_tensor.py":487:0) at callsite("training_step"("train.py":117:0) at callsite("generated_trace_fn"("cerebras_pytorch/core/compile.py":139:0) at callsite("main"("train.py":161:0) at "<module>"("train.py":170:0))))))))
#loc254 = loc("decoder.6.attn.proj_output.bwd"(callsite("backward"("torch/autograd/__init__.py":200:0) at callsite("backward"("torch/_tensor.py":487:0) at callsite("training_step"("train.py":117:0) at callsite("generated_trace_fn"("cerebras_pytorch/core/compile.py":139:0) at callsite("main"("train.py":161:0) at "<module>"("train.py":170:0))))))))
#loc255 = loc("decoder.6.attn.dropout_layer.bwd"(callsite("backward"("torch/autograd/__init__.py":200:0) at callsite("backward"("torch/_tensor.py":487:0) at callsite("training_step"("train.py":117:0) at callsite("generated_trace_fn"("cerebras_pytorch/core/compile.py":139:0) at callsite("main"("train.py":161:0) at "<module>"("train.py":170:0))))))))
#loc256 = loc("decoder.6.attn.proj_k.bwd"(callsite("backward"("torch/autograd/__init__.py":200:0) at callsite("backward"("torch/_tensor.py":487:0) at callsite("training_step"("train.py":117:0) at callsite("generated_trace_fn"("cerebras_pytorch/core/compile.py":139:0) at callsite("main"("train.py":161:0) at "<module>"("train.py":170:0))))))))
#loc257 = loc("decoder.6.attn.proj_q.bwd"(callsite("backward"("torch/autograd/__init__.py":200:0) at callsite("backward"("torch/_tensor.py":487:0) at callsite("training_step"("train.py":117:0) at callsite("generated_trace_fn"("cerebras_pytorch/core/compile.py":139:0) at callsite("main"("train.py":161:0) at "<module>"("train.py":170:0))))))))
#loc258 = loc("decoder.6.attn.proj_v.bwd"(callsite("backward"("torch/autograd/__init__.py":200:0) at callsite("backward"("torch/_tensor.py":487:0) at callsite("training_step"("train.py":117:0) at callsite("generated_trace_fn"("cerebras_pytorch/core/compile.py":139:0) at callsite("main"("train.py":161:0) at "<module>"("train.py":170:0))))))))
#loc259 = loc("decoder.6.ln_1.bwd"(callsite("backward"("torch/autograd/__init__.py":200:0) at callsite("backward"("torch/_tensor.py":487:0) at callsite("training_step"("train.py":117:0) at callsite("generated_trace_fn"("cerebras_pytorch/core/compile.py":139:0) at callsite("main"("train.py":161:0) at "<module>"("train.py":170:0))))))))
#loc260 = loc("decoder.5.ffn.proj.bwd"(callsite("backward"("torch/autograd/__init__.py":200:0) at callsite("backward"("torch/_tensor.py":487:0) at callsite("training_step"("train.py":117:0) at callsite("generated_trace_fn"("cerebras_pytorch/core/compile.py":139:0) at callsite("main"("train.py":161:0) at "<module>"("train.py":170:0))))))))
#loc261 = loc("decoder.5.ffn.fc.bwd"(callsite("backward"("torch/autograd/__init__.py":200:0) at callsite("backward"("torch/_tensor.py":487:0) at callsite("training_step"("train.py":117:0) at callsite("generated_trace_fn"("cerebras_pytorch/core/compile.py":139:0) at callsite("main"("train.py":161:0) at "<module>"("train.py":170:0))))))))
#loc262 = loc("decoder.5.ln_2.bwd"(callsite("backward"("torch/autograd/__init__.py":200:0) at callsite("backward"("torch/_tensor.py":487:0) at callsite("training_step"("train.py":117:0) at callsite("generated_trace_fn"("cerebras_pytorch/core/compile.py":139:0) at callsite("main"("train.py":161:0) at "<module>"("train.py":170:0))))))))
#loc263 = loc("decoder.5.attn.proj_output.bwd"(callsite("backward"("torch/autograd/__init__.py":200:0) at callsite("backward"("torch/_tensor.py":487:0) at callsite("training_step"("train.py":117:0) at callsite("generated_trace_fn"("cerebras_pytorch/core/compile.py":139:0) at callsite("main"("train.py":161:0) at "<module>"("train.py":170:0))))))))
#loc264 = loc("decoder.5.attn.dropout_layer.bwd"(callsite("backward"("torch/autograd/__init__.py":200:0) at callsite("backward"("torch/_tensor.py":487:0) at callsite("training_step"("train.py":117:0) at callsite("generated_trace_fn"("cerebras_pytorch/core/compile.py":139:0) at callsite("main"("train.py":161:0) at "<module>"("train.py":170:0))))))))
#loc265 = loc("decoder.5.attn.proj_k.bwd"(callsite("backward"("torch/autograd/__init__.py":200:0) at callsite("backward"("torch/_tensor.py":487:0) at callsite("training_step"("train.py":117:0) at callsite("generated_trace_fn"("cerebras_pytorch/core/compile.py":139:0) at callsite("main"("train.py":161:0) at "<module>"("train.py":170:0))))))))
#loc266 = loc("decoder.5.attn.proj_q.bwd"(callsite("backward"("torch/autograd/__init__.py":200:0) at callsite("backward"("torch/_tensor.py":487:0) at callsite("training_step"("train.py":117:0) at callsite("generated_trace_fn"("cerebras_pytorch/core/compile.py":139:0) at callsite("main"("train.py":161:0) at "<module>"("train.py":170:0))))))))
#loc267 = loc("decoder.5.attn.proj_v.bwd"(callsite("backward"("torch/autograd/__init__.py":200:0) at callsite("backward"("torch/_tensor.py":487:0) at callsite("training_step"("train.py":117:0) at callsite("generated_trace_fn"("cerebras_pytorch/core/compile.py":139:0) at callsite("main"("train.py":161:0) at "<module>"("train.py":170:0))))))))
#loc268 = loc("decoder.5.ln_1.bwd"(callsite("backward"("torch/autograd/__init__.py":200:0) at callsite("backward"("torch/_tensor.py":487:0) at callsite("training_step"("train.py":117:0) at callsite("generated_trace_fn"("cerebras_pytorch/core/compile.py":139:0) at callsite("main"("train.py":161:0) at "<module>"("train.py":170:0))))))))
#loc269 = loc("decoder.4.ffn.proj.bwd"(callsite("backward"("torch/autograd/__init__.py":200:0) at callsite("backward"("torch/_tensor.py":487:0) at callsite("training_step"("train.py":117:0) at callsite("generated_trace_fn"("cerebras_pytorch/core/compile.py":139:0) at callsite("main"("train.py":161:0) at "<module>"("train.py":170:0))))))))
#loc270 = loc("decoder.4.ffn.fc.bwd"(callsite("backward"("torch/autograd/__init__.py":200:0) at callsite("backward"("torch/_tensor.py":487:0) at callsite("training_step"("train.py":117:0) at callsite("generated_trace_fn"("cerebras_pytorch/core/compile.py":139:0) at callsite("main"("train.py":161:0) at "<module>"("train.py":170:0))))))))
#loc271 = loc("decoder.4.ln_2.bwd"(callsite("backward"("torch/autograd/__init__.py":200:0) at callsite("backward"("torch/_tensor.py":487:0) at callsite("training_step"("train.py":117:0) at callsite("generated_trace_fn"("cerebras_pytorch/core/compile.py":139:0) at callsite("main"("train.py":161:0) at "<module>"("train.py":170:0))))))))
#loc272 = loc("decoder.4.attn.proj_output.bwd"(callsite("backward"("torch/autograd/__init__.py":200:0) at callsite("backward"("torch/_tensor.py":487:0) at callsite("training_step"("train.py":117:0) at callsite("generated_trace_fn"("cerebras_pytorch/core/compile.py":139:0) at callsite("main"("train.py":161:0) at "<module>"("train.py":170:0))))))))
#loc273 = loc("decoder.4.attn.dropout_layer.bwd"(callsite("backward"("torch/autograd/__init__.py":200:0) at callsite("backward"("torch/_tensor.py":487:0) at callsite("training_step"("train.py":117:0) at callsite("generated_trace_fn"("cerebras_pytorch/core/compile.py":139:0) at callsite("main"("train.py":161:0) at "<module>"("train.py":170:0))))))))
#loc274 = loc("decoder.4.attn.proj_k.bwd"(callsite("backward"("torch/autograd/__init__.py":200:0) at callsite("backward"("torch/_tensor.py":487:0) at callsite("training_step"("train.py":117:0) at callsite("generated_trace_fn"("cerebras_pytorch/core/compile.py":139:0) at callsite("main"("train.py":161:0) at "<module>"("train.py":170:0))))))))
#loc275 = loc("decoder.4.attn.proj_q.bwd"(callsite("backward"("torch/autograd/__init__.py":200:0) at callsite("backward"("torch/_tensor.py":487:0) at callsite("training_step"("train.py":117:0) at callsite("generated_trace_fn"("cerebras_pytorch/core/compile.py":139:0) at callsite("main"("train.py":161:0) at "<module>"("train.py":170:0))))))))
#loc276 = loc("decoder.4.attn.proj_v.bwd"(callsite("backward"("torch/autograd/__init__.py":200:0) at callsite("backward"("torch/_tensor.py":487:0) at callsite("training_step"("train.py":117:0) at callsite("generated_trace_fn"("cerebras_pytorch/core/compile.py":139:0) at callsite("main"("train.py":161:0) at "<module>"("train.py":170:0))))))))
#loc277 = loc("decoder.4.ln_1.bwd"(callsite("backward"("torch/autograd/__init__.py":200:0) at callsite("backward"("torch/_tensor.py":487:0) at callsite("training_step"("train.py":117:0) at callsite("generated_trace_fn"("cerebras_pytorch/core/compile.py":139:0) at callsite("main"("train.py":161:0) at "<module>"("train.py":170:0))))))))
#loc278 = loc("decoder.3.ffn.proj.bwd"(callsite("backward"("torch/autograd/__init__.py":200:0) at callsite("backward"("torch/_tensor.py":487:0) at callsite("training_step"("train.py":117:0) at callsite("generated_trace_fn"("cerebras_pytorch/core/compile.py":139:0) at callsite("main"("train.py":161:0) at "<module>"("train.py":170:0))))))))
#loc279 = loc("decoder.3.ffn.fc.bwd"(callsite("backward"("torch/autograd/__init__.py":200:0) at callsite("backward"("torch/_tensor.py":487:0) at callsite("training_step"("train.py":117:0) at callsite("generated_trace_fn"("cerebras_pytorch/core/compile.py":139:0) at callsite("main"("train.py":161:0) at "<module>"("train.py":170:0))))))))
#loc280 = loc("decoder.3.ln_2.bwd"(callsite("backward"("torch/autograd/__init__.py":200:0) at callsite("backward"("torch/_tensor.py":487:0) at callsite("training_step"("train.py":117:0) at callsite("generated_trace_fn"("cerebras_pytorch/core/compile.py":139:0) at callsite("main"("train.py":161:0) at "<module>"("train.py":170:0))))))))
#loc281 = loc("decoder.3.attn.proj_output.bwd"(callsite("backward"("torch/autograd/__init__.py":200:0) at callsite("backward"("torch/_tensor.py":487:0) at callsite("training_step"("train.py":117:0) at callsite("generated_trace_fn"("cerebras_pytorch/core/compile.py":139:0) at callsite("main"("train.py":161:0) at "<module>"("train.py":170:0))))))))
#loc282 = loc("decoder.3.attn.dropout_layer.bwd"(callsite("backward"("torch/autograd/__init__.py":200:0) at callsite("backward"("torch/_tensor.py":487:0) at callsite("training_step"("train.py":117:0) at callsite("generated_trace_fn"("cerebras_pytorch/core/compile.py":139:0) at callsite("main"("train.py":161:0) at "<module>"("train.py":170:0))))))))
#loc283 = loc("decoder.3.attn.proj_k.bwd"(callsite("backward"("torch/autograd/__init__.py":200:0) at callsite("backward"("torch/_tensor.py":487:0) at callsite("training_step"("train.py":117:0) at callsite("generated_trace_fn"("cerebras_pytorch/core/compile.py":139:0) at callsite("main"("train.py":161:0) at "<module>"("train.py":170:0))))))))
#loc284 = loc("decoder.3.attn.proj_q.bwd"(callsite("backward"("torch/autograd/__init__.py":200:0) at callsite("backward"("torch/_tensor.py":487:0) at callsite("training_step"("train.py":117:0) at callsite("generated_trace_fn"("cerebras_pytorch/core/compile.py":139:0) at callsite("main"("train.py":161:0) at "<module>"("train.py":170:0))))))))
#loc285 = loc("decoder.3.attn.proj_v.bwd"(callsite("backward"("torch/autograd/__init__.py":200:0) at callsite("backward"("torch/_tensor.py":487:0) at callsite("training_step"("train.py":117:0) at callsite("generated_trace_fn"("cerebras_pytorch/core/compile.py":139:0) at callsite("main"("train.py":161:0) at "<module>"("train.py":170:0))))))))
#loc286 = loc("decoder.3.ln_1.bwd"(callsite("backward"("torch/autograd/__init__.py":200:0) at callsite("backward"("torch/_tensor.py":487:0) at callsite("training_step"("train.py":117:0) at callsite("generated_trace_fn"("cerebras_pytorch/core/compile.py":139:0) at callsite("main"("train.py":161:0) at "<module>"("train.py":170:0))))))))
#loc287 = loc("decoder.2.ffn.proj.bwd"(callsite("backward"("torch/autograd/__init__.py":200:0) at callsite("backward"("torch/_tensor.py":487:0) at callsite("training_step"("train.py":117:0) at callsite("generated_trace_fn"("cerebras_pytorch/core/compile.py":139:0) at callsite("main"("train.py":161:0) at "<module>"("train.py":170:0))))))))
#loc288 = loc("decoder.2.ffn.fc.bwd"(callsite("backward"("torch/autograd/__init__.py":200:0) at callsite("backward"("torch/_tensor.py":487:0) at callsite("training_step"("train.py":117:0) at callsite("generated_trace_fn"("cerebras_pytorch/core/compile.py":139:0) at callsite("main"("train.py":161:0) at "<module>"("train.py":170:0))))))))
#loc289 = loc("decoder.2.ln_2.bwd"(callsite("backward"("torch/autograd/__init__.py":200:0) at callsite("backward"("torch/_tensor.py":487:0) at callsite("training_step"("train.py":117:0) at callsite("generated_trace_fn"("cerebras_pytorch/core/compile.py":139:0) at callsite("main"("train.py":161:0) at "<module>"("train.py":170:0))))))))
#loc290 = loc("decoder.2.attn.proj_output.bwd"(callsite("backward"("torch/autograd/__init__.py":200:0) at callsite("backward"("torch/_tensor.py":487:0) at callsite("training_step"("train.py":117:0) at callsite("generated_trace_fn"("cerebras_pytorch/core/compile.py":139:0) at callsite("main"("train.py":161:0) at "<module>"("train.py":170:0))))))))
#loc291 = loc("decoder.2.attn.dropout_layer.bwd"(callsite("backward"("torch/autograd/__init__.py":200:0) at callsite("backward"("torch/_tensor.py":487:0) at callsite("training_step"("train.py":117:0) at callsite("generated_trace_fn"("cerebras_pytorch/core/compile.py":139:0) at callsite("main"("train.py":161:0) at "<module>"("train.py":170:0))))))))
#loc292 = loc("decoder.2.attn.proj_k.bwd"(callsite("backward"("torch/autograd/__init__.py":200:0) at callsite("backward"("torch/_tensor.py":487:0) at callsite("training_step"("train.py":117:0) at callsite("generated_trace_fn"("cerebras_pytorch/core/compile.py":139:0) at callsite("main"("train.py":161:0) at "<module>"("train.py":170:0))))))))
#loc293 = loc("decoder.2.attn.proj_q.bwd"(callsite("backward"("torch/autograd/__init__.py":200:0) at callsite("backward"("torch/_tensor.py":487:0) at callsite("training_step"("train.py":117:0) at callsite("generated_trace_fn"("cerebras_pytorch/core/compile.py":139:0) at callsite("main"("train.py":161:0) at "<module>"("train.py":170:0))))))))
#loc294 = loc("decoder.2.attn.proj_v.bwd"(callsite("backward"("torch/autograd/__init__.py":200:0) at callsite("backward"("torch/_tensor.py":487:0) at callsite("training_step"("train.py":117:0) at callsite("generated_trace_fn"("cerebras_pytorch/core/compile.py":139:0) at callsite("main"("train.py":161:0) at "<module>"("train.py":170:0))))))))
#loc295 = loc("decoder.2.ln_1.bwd"(callsite("backward"("torch/autograd/__init__.py":200:0) at callsite("backward"("torch/_tensor.py":487:0) at callsite("training_step"("train.py":117:0) at callsite("generated_trace_fn"("cerebras_pytorch/core/compile.py":139:0) at callsite("main"("train.py":161:0) at "<module>"("train.py":170:0))))))))
#loc296 = loc("decoder.1.ffn.proj.bwd"(callsite("backward"("torch/autograd/__init__.py":200:0) at callsite("backward"("torch/_tensor.py":487:0) at callsite("training_step"("train.py":117:0) at callsite("generated_trace_fn"("cerebras_pytorch/core/compile.py":139:0) at callsite("main"("train.py":161:0) at "<module>"("train.py":170:0))))))))
#loc297 = loc("decoder.1.ffn.fc.bwd"(callsite("backward"("torch/autograd/__init__.py":200:0) at callsite("backward"("torch/_tensor.py":487:0) at callsite("training_step"("train.py":117:0) at callsite("generated_trace_fn"("cerebras_pytorch/core/compile.py":139:0) at callsite("main"("train.py":161:0) at "<module>"("train.py":170:0))))))))
#loc298 = loc("decoder.1.ln_2.bwd"(callsite("backward"("torch/autograd/__init__.py":200:0) at callsite("backward"("torch/_tensor.py":487:0) at callsite("training_step"("train.py":117:0) at callsite("generated_trace_fn"("cerebras_pytorch/core/compile.py":139:0) at callsite("main"("train.py":161:0) at "<module>"("train.py":170:0))))))))
#loc299 = loc("decoder.1.attn.proj_output.bwd"(callsite("backward"("torch/autograd/__init__.py":200:0) at callsite("backward"("torch/_tensor.py":487:0) at callsite("training_step"("train.py":117:0) at callsite("generated_trace_fn"("cerebras_pytorch/core/compile.py":139:0) at callsite("main"("train.py":161:0) at "<module>"("train.py":170:0))))))))
#loc300 = loc("decoder.1.attn.dropout_layer.bwd"(callsite("backward"("torch/autograd/__init__.py":200:0) at callsite("backward"("torch/_tensor.py":487:0) at callsite("training_step"("train.py":117:0) at callsite("generated_trace_fn"("cerebras_pytorch/core/compile.py":139:0) at callsite("main"("train.py":161:0) at "<module>"("train.py":170:0))))))))
#loc301 = loc("decoder.1.attn.proj_k.bwd"(callsite("backward"("torch/autograd/__init__.py":200:0) at callsite("backward"("torch/_tensor.py":487:0) at callsite("training_step"("train.py":117:0) at callsite("generated_trace_fn"("cerebras_pytorch/core/compile.py":139:0) at callsite("main"("train.py":161:0) at "<module>"("train.py":170:0))))))))
#loc302 = loc("decoder.1.attn.proj_q.bwd"(callsite("backward"("torch/autograd/__init__.py":200:0) at callsite("backward"("torch/_tensor.py":487:0) at callsite("training_step"("train.py":117:0) at callsite("generated_trace_fn"("cerebras_pytorch/core/compile.py":139:0) at callsite("main"("train.py":161:0) at "<module>"("train.py":170:0))))))))
#loc303 = loc("decoder.1.attn.proj_v.bwd"(callsite("backward"("torch/autograd/__init__.py":200:0) at callsite("backward"("torch/_tensor.py":487:0) at callsite("training_step"("train.py":117:0) at callsite("generated_trace_fn"("cerebras_pytorch/core/compile.py":139:0) at callsite("main"("train.py":161:0) at "<module>"("train.py":170:0))))))))
#loc304 = loc("decoder.1.ln_1.bwd"(callsite("backward"("torch/autograd/__init__.py":200:0) at callsite("backward"("torch/_tensor.py":487:0) at callsite("training_step"("train.py":117:0) at callsite("generated_trace_fn"("cerebras_pytorch/core/compile.py":139:0) at callsite("main"("train.py":161:0) at "<module>"("train.py":170:0))))))))
#loc305 = loc("decoder.0.ffn.proj.bwd"(callsite("backward"("torch/autograd/__init__.py":200:0) at callsite("backward"("torch/_tensor.py":487:0) at callsite("training_step"("train.py":117:0) at callsite("generated_trace_fn"("cerebras_pytorch/core/compile.py":139:0) at callsite("main"("train.py":161:0) at "<module>"("train.py":170:0))))))))
#loc306 = loc("decoder.0.ffn.fc.bwd"(callsite("backward"("torch/autograd/__init__.py":200:0) at callsite("backward"("torch/_tensor.py":487:0) at callsite("training_step"("train.py":117:0) at callsite("generated_trace_fn"("cerebras_pytorch/core/compile.py":139:0) at callsite("main"("train.py":161:0) at "<module>"("train.py":170:0))))))))
#loc307 = loc("decoder.0.ln_2.bwd"(callsite("backward"("torch/autograd/__init__.py":200:0) at callsite("backward"("torch/_tensor.py":487:0) at callsite("training_step"("train.py":117:0) at callsite("generated_trace_fn"("cerebras_pytorch/core/compile.py":139:0) at callsite("main"("train.py":161:0) at "<module>"("train.py":170:0))))))))
#loc308 = loc("decoder.0.attn.proj_output.bwd"(callsite("backward"("torch/autograd/__init__.py":200:0) at callsite("backward"("torch/_tensor.py":487:0) at callsite("training_step"("train.py":117:0) at callsite("generated_trace_fn"("cerebras_pytorch/core/compile.py":139:0) at callsite("main"("train.py":161:0) at "<module>"("train.py":170:0))))))))
#loc309 = loc("decoder.0.attn.dropout_layer.bwd"(callsite("backward"("torch/autograd/__init__.py":200:0) at callsite("backward"("torch/_tensor.py":487:0) at callsite("training_step"("train.py":117:0) at callsite("generated_trace_fn"("cerebras_pytorch/core/compile.py":139:0) at callsite("main"("train.py":161:0) at "<module>"("train.py":170:0))))))))
#loc310 = loc("decoder.0.attn.proj_k.bwd"(callsite("backward"("torch/autograd/__init__.py":200:0) at callsite("backward"("torch/_tensor.py":487:0) at callsite("training_step"("train.py":117:0) at callsite("generated_trace_fn"("cerebras_pytorch/core/compile.py":139:0) at callsite("main"("train.py":161:0) at "<module>"("train.py":170:0))))))))
#loc311 = loc("decoder.0.attn.proj_q.bwd"(callsite("backward"("torch/autograd/__init__.py":200:0) at callsite("backward"("torch/_tensor.py":487:0) at callsite("training_step"("train.py":117:0) at callsite("generated_trace_fn"("cerebras_pytorch/core/compile.py":139:0) at callsite("main"("train.py":161:0) at "<module>"("train.py":170:0))))))))
#loc312 = loc("decoder.0.attn.proj_v.bwd"(callsite("backward"("torch/autograd/__init__.py":200:0) at callsite("backward"("torch/_tensor.py":487:0) at callsite("training_step"("train.py":117:0) at callsite("generated_trace_fn"("cerebras_pytorch/core/compile.py":139:0) at callsite("main"("train.py":161:0) at "<module>"("train.py":170:0))))))))
#loc313 = loc("decoder.0.ln_1.bwd"(callsite("backward"("torch/autograd/__init__.py":200:0) at callsite("backward"("torch/_tensor.py":487:0) at callsite("training_step"("train.py":117:0) at callsite("generated_trace_fn"("cerebras_pytorch/core/compile.py":139:0) at callsite("main"("train.py":161:0) at "<module>"("train.py":170:0))))))))
#loc314 = loc("wte.bwd"(callsite("wrapper"("cerebras_pytorch/amp/wrap.py":124:0) at callsite("clip_grad_norm_"("torch/nn/utils/clip_grad.py":61:0) at callsite("training_step"("train.py":118:0) at callsite("generated_trace_fn"("cerebras_pytorch/core/compile.py":139:0) at callsite("main"("train.py":161:0) at "<module>"("train.py":170:0))))))))
#loc315 = loc("wte.bwd"(callsite("norm"("torch/functional.py":1530:0) at callsite("wrapper"("cerebras_pytorch/amp/wrap.py":62:0) at callsite("clip_grad_norm_"("torch/nn/utils/clip_grad.py":61:0) at callsite("training_step"("train.py":118:0) at callsite("generated_trace_fn"("cerebras_pytorch/core/compile.py":139:0) at callsite("main"("train.py":161:0) at "<module>"("train.py":170:0)))))))))
#loc316 = loc("wte.bwd"(callsite("wrapper"("cerebras_pytorch/amp/wrap.py":94:0) at callsite("clip_grad_norm_"("torch/nn/utils/clip_grad.py":69:0) at callsite("training_step"("train.py":118:0) at callsite("generated_trace_fn"("cerebras_pytorch/core/compile.py":139:0) at callsite("main"("train.py":161:0) at "<module>"("train.py":170:0))))))))
#loc317 = loc("wte.bwd"(callsite("wrapper"("cerebras_pytorch/amp/wrap.py":62:0) at callsite("__rdiv__"("torch/_tensor.py":852:0) at callsite("wrapped"("torch/_tensor.py":40:0) at callsite("wrapper"("cerebras_pytorch/amp/wrap.py":94:0) at callsite("clip_grad_norm_"("torch/nn/utils/clip_grad.py":69:0) at callsite("training_step"("train.py":118:0) at callsite("generated_trace_fn"("cerebras_pytorch/core/compile.py":139:0) at callsite("main"("train.py":161:0) at "<module>"("train.py":170:0)))))))))))
#loc318 = loc("wte.bwd"(callsite("wrapper"("cerebras_pytorch/amp/wrap.py":156:0) at callsite("clip_grad_norm_"("torch/nn/utils/clip_grad.py":82:0) at callsite("training_step"("train.py":118:0) at callsite("generated_trace_fn"("cerebras_pytorch/core/compile.py":139:0) at callsite("main"("train.py":161:0) at "<module>"("train.py":170:0))))))))
#loc319 = loc("optimizer"(callsite("wrapper"("cerebras_pytorch/amp/wrap.py":94:0) at callsite("step"("cerebras_pytorch/optim/AdamBase.py":141:0) at callsite("decorate_context"("torch/utils/_contextlib.py":115:0) at callsite("wrapper"("torch/optim/optimizer.py":280:0) at callsite("wrapper"("torch/optim/lr_scheduler.py":69:0) at callsite("wrapped_optimizer_step"("cerebras_pytorch/backend/base_backend.py":473:0) at callsite("training_step"("train.py":119:0) at callsite("generated_trace_fn"("cerebras_pytorch/core/compile.py":139:0) at callsite("main"("train.py":161:0) at "<module>"("train.py":170:0))))))))))))
#loc320 = loc("optimizer"(callsite("wrapper"("cerebras_pytorch/amp/wrap.py":94:0) at callsite("step"("cerebras_pytorch/optim/AdamBase.py":142:0) at callsite("decorate_context"("torch/utils/_contextlib.py":115:0) at callsite("wrapper"("torch/optim/optimizer.py":280:0) at callsite("wrapper"("torch/optim/lr_scheduler.py":69:0) at callsite("wrapped_optimizer_step"("cerebras_pytorch/backend/base_backend.py":473:0) at callsite("training_step"("train.py":119:0) at callsite("generated_trace_fn"("cerebras_pytorch/core/compile.py":139:0) at callsite("main"("train.py":161:0) at "<module>"("train.py":170:0))))))))))))
#loc321 = loc("optimizer"(callsite("_get_closed_form_lr"("cerebras_pytorch/optim/lr_scheduler.py":429:0) at callsite("_get_closed_form_lr"("cerebras_pytorch/optim/lr_scheduler.py":515:0) at callsite("get_lr"("cerebras_pytorch/optim/lr_scheduler.py":77:0) at callsite("update_last_lr"("cerebras_pytorch/optim/lr_scheduler.py":143:0) at callsite("pre_optimizer_step"("cerebras_pytorch/backend/ltc_backend.py":395:0) at callsite("wrapped_optimizer_step"("cerebras_pytorch/backend/base_backend.py":472:0) at callsite("training_step"("train.py":119:0) at callsite("generated_trace_fn"("cerebras_pytorch/core/compile.py":139:0) at callsite("main"("train.py":161:0) at "<module>"("train.py":170:0))))))))))))
#loc322 = loc("optimizer"(callsite("wrapper"("cerebras_pytorch/amp/wrap.py":94:0) at callsite("_get_closed_form_lr"("cerebras_pytorch/optim/lr_scheduler.py":437:0) at callsite("_get_closed_form_lr"("cerebras_pytorch/optim/lr_scheduler.py":515:0) at callsite("get_lr"("cerebras_pytorch/optim/lr_scheduler.py":77:0) at callsite("update_last_lr"("cerebras_pytorch/optim/lr_scheduler.py":143:0) at callsite("pre_optimizer_step"("cerebras_pytorch/backend/ltc_backend.py":395:0) at callsite("wrapped_optimizer_step"("cerebras_pytorch/backend/base_backend.py":472:0) at callsite("training_step"("train.py":119:0) at callsite("generated_trace_fn"("cerebras_pytorch/core/compile.py":139:0) at callsite("main"("train.py":161:0) at "<module>"("train.py":170:0)))))))))))))
#loc323 = loc("optimizer"(callsite("_get_closed_form_lr"("cerebras_pytorch/optim/lr_scheduler.py":437:0) at callsite("_get_closed_form_lr"("cerebras_pytorch/optim/lr_scheduler.py":515:0) at callsite("get_lr"("cerebras_pytorch/optim/lr_scheduler.py":77:0) at callsite("update_last_lr"("cerebras_pytorch/optim/lr_scheduler.py":143:0) at callsite("pre_optimizer_step"("cerebras_pytorch/backend/ltc_backend.py":395:0) at callsite("wrapped_optimizer_step"("cerebras_pytorch/backend/base_backend.py":472:0) at callsite("training_step"("train.py":119:0) at callsite("generated_trace_fn"("cerebras_pytorch/core/compile.py":139:0) at callsite("main"("train.py":161:0) at "<module>"("train.py":170:0))))))))))))
#loc324 = loc("optimizer"(callsite("wrapper"("cerebras_pytorch/amp/wrap.py":94:0) at callsite("_get_closed_form_lr"("cerebras_pytorch/optim/lr_scheduler.py":439:0) at callsite("_get_closed_form_lr"("cerebras_pytorch/optim/lr_scheduler.py":515:0) at callsite("get_lr"("cerebras_pytorch/optim/lr_scheduler.py":77:0) at callsite("update_last_lr"("cerebras_pytorch/optim/lr_scheduler.py":143:0) at callsite("pre_optimizer_step"("cerebras_pytorch/backend/ltc_backend.py":395:0) at callsite("wrapped_optimizer_step"("cerebras_pytorch/backend/base_backend.py":472:0) at callsite("training_step"("train.py":119:0) at callsite("generated_trace_fn"("cerebras_pytorch/core/compile.py":139:0) at callsite("main"("train.py":161:0) at "<module>"("train.py":170:0)))))))))))))
#loc325 = loc("optimizer"(callsite("_get_closed_form_lr"("cerebras_pytorch/optim/lr_scheduler.py":236:0) at callsite("_get_closed_form_lr"("cerebras_pytorch/optim/lr_scheduler.py":506:0) at callsite("get_lr"("cerebras_pytorch/optim/lr_scheduler.py":77:0) at callsite("update_last_lr"("cerebras_pytorch/optim/lr_scheduler.py":143:0) at callsite("pre_optimizer_step"("cerebras_pytorch/backend/ltc_backend.py":395:0) at callsite("wrapped_optimizer_step"("cerebras_pytorch/backend/base_backend.py":472:0) at callsite("training_step"("train.py":119:0) at callsite("generated_trace_fn"("cerebras_pytorch/core/compile.py":139:0) at callsite("main"("train.py":161:0) at "<module>"("train.py":170:0))))))))))))
#loc326 = loc("optimizer"(callsite("wrapper"("cerebras_pytorch/amp/wrap.py":94:0) at callsite("_get_closed_form_lr"("cerebras_pytorch/optim/lr_scheduler.py":236:0) at callsite("_get_closed_form_lr"("cerebras_pytorch/optim/lr_scheduler.py":506:0) at callsite("get_lr"("cerebras_pytorch/optim/lr_scheduler.py":77:0) at callsite("update_last_lr"("cerebras_pytorch/optim/lr_scheduler.py":143:0) at callsite("pre_optimizer_step"("cerebras_pytorch/backend/ltc_backend.py":395:0) at callsite("wrapped_optimizer_step"("cerebras_pytorch/backend/base_backend.py":472:0) at callsite("training_step"("train.py":119:0) at callsite("generated_trace_fn"("cerebras_pytorch/core/compile.py":139:0) at callsite("main"("train.py":161:0) at "<module>"("train.py":170:0)))))))))))))
#loc327 = loc("optimizer"(callsite("wrapper"("cerebras_pytorch/amp/wrap.py":94:0) at callsite("_get_closed_form_lr"("cerebras_pytorch/optim/lr_scheduler.py":232:0) at callsite("_get_closed_form_lr"("cerebras_pytorch/optim/lr_scheduler.py":506:0) at callsite("get_lr"("cerebras_pytorch/optim/lr_scheduler.py":77:0) at callsite("update_last_lr"("cerebras_pytorch/optim/lr_scheduler.py":143:0) at callsite("pre_optimizer_step"("cerebras_pytorch/backend/ltc_backend.py":395:0) at callsite("wrapped_optimizer_step"("cerebras_pytorch/backend/base_backend.py":472:0) at callsite("training_step"("train.py":119:0) at callsite("generated_trace_fn"("cerebras_pytorch/core/compile.py":139:0) at callsite("main"("train.py":161:0) at "<module>"("train.py":170:0)))))))))))))
#loc328 = loc("optimizer"(callsite("_get_closed_form_lr"("cerebras_pytorch/optim/lr_scheduler.py":231:0) at callsite("_get_closed_form_lr"("cerebras_pytorch/optim/lr_scheduler.py":506:0) at callsite("get_lr"("cerebras_pytorch/optim/lr_scheduler.py":77:0) at callsite("update_last_lr"("cerebras_pytorch/optim/lr_scheduler.py":143:0) at callsite("pre_optimizer_step"("cerebras_pytorch/backend/ltc_backend.py":395:0) at callsite("wrapped_optimizer_step"("cerebras_pytorch/backend/base_backend.py":472:0) at callsite("training_step"("train.py":119:0) at callsite("generated_trace_fn"("cerebras_pytorch/core/compile.py":139:0) at callsite("main"("train.py":161:0) at "<module>"("train.py":170:0))))))))))))
#loc329 = loc("optimizer"(callsite("wrapper"("cerebras_pytorch/amp/wrap.py":94:0) at callsite("_get_closed_form_lr"("cerebras_pytorch/optim/lr_scheduler.py":513:0) at callsite("get_lr"("cerebras_pytorch/optim/lr_scheduler.py":77:0) at callsite("update_last_lr"("cerebras_pytorch/optim/lr_scheduler.py":143:0) at callsite("pre_optimizer_step"("cerebras_pytorch/backend/ltc_backend.py":395:0) at callsite("wrapped_optimizer_step"("cerebras_pytorch/backend/base_backend.py":472:0) at callsite("training_step"("train.py":119:0) at callsite("generated_trace_fn"("cerebras_pytorch/core/compile.py":139:0) at callsite("main"("train.py":161:0) at "<module>"("train.py":170:0))))))))))))
#loc330 = loc("optimizer"(callsite("_get_closed_form_lr"("cerebras_pytorch/optim/lr_scheduler.py":512:0) at callsite("get_lr"("cerebras_pytorch/optim/lr_scheduler.py":77:0) at callsite("update_last_lr"("cerebras_pytorch/optim/lr_scheduler.py":143:0) at callsite("pre_optimizer_step"("cerebras_pytorch/backend/ltc_backend.py":395:0) at callsite("wrapped_optimizer_step"("cerebras_pytorch/backend/base_backend.py":472:0) at callsite("training_step"("train.py":119:0) at callsite("generated_trace_fn"("cerebras_pytorch/core/compile.py":139:0) at callsite("main"("train.py":161:0) at "<module>"("train.py":170:0)))))))))))
#loc331 = loc("optimizer"(callsite("wrapper"("cerebras_pytorch/amp/wrap.py":94:0) at callsite("step"("cerebras_pytorch/optim/AdamBase.py":136:0) at callsite("decorate_context"("torch/utils/_contextlib.py":115:0) at callsite("wrapper"("torch/optim/optimizer.py":280:0) at callsite("wrapper"("torch/optim/lr_scheduler.py":69:0) at callsite("wrapped_optimizer_step"("cerebras_pytorch/backend/base_backend.py":473:0) at callsite("training_step"("train.py":119:0) at callsite("generated_trace_fn"("cerebras_pytorch/core/compile.py":139:0) at callsite("main"("train.py":161:0) at "<module>"("train.py":170:0))))))))))))
#loc332 = loc("optimizer"(callsite("wrapper"("cerebras_pytorch/amp/wrap.py":94:0) at callsite("step"("cerebras_pytorch/optim/AdamBase.py":137:0) at callsite("decorate_context"("torch/utils/_contextlib.py":115:0) at callsite("wrapper"("torch/optim/optimizer.py":280:0) at callsite("wrapper"("torch/optim/lr_scheduler.py":69:0) at callsite("wrapped_optimizer_step"("cerebras_pytorch/backend/base_backend.py":473:0) at callsite("training_step"("train.py":119:0) at callsite("generated_trace_fn"("cerebras_pytorch/core/compile.py":139:0) at callsite("main"("train.py":161:0) at "<module>"("train.py":170:0))))))))))))
#loc333 = loc("optimizer"(callsite("step"("cerebras_pytorch/optim/AdamBase.py":138:0) at callsite("decorate_context"("torch/utils/_contextlib.py":115:0) at callsite("wrapper"("torch/optim/optimizer.py":280:0) at callsite("wrapper"("torch/optim/lr_scheduler.py":69:0) at callsite("wrapped_optimizer_step"("cerebras_pytorch/backend/base_backend.py":473:0) at callsite("training_step"("train.py":119:0) at callsite("generated_trace_fn"("cerebras_pytorch/core/compile.py":139:0) at callsite("main"("train.py":161:0) at "<module>"("train.py":170:0)))))))))))
#loc334 = loc("optimizer"(callsite("wrapper"("cerebras_pytorch/amp/wrap.py":94:0) at callsite("step"("cerebras_pytorch/optim/AdamBase.py":138:0) at callsite("decorate_context"("torch/utils/_contextlib.py":115:0) at callsite("wrapper"("torch/optim/optimizer.py":280:0) at callsite("wrapper"("torch/optim/lr_scheduler.py":69:0) at callsite("wrapped_optimizer_step"("cerebras_pytorch/backend/base_backend.py":473:0) at callsite("training_step"("train.py":119:0) at callsite("generated_trace_fn"("cerebras_pytorch/core/compile.py":139:0) at callsite("main"("train.py":161:0) at "<module>"("train.py":170:0))))))))))))
#loc335 = loc("optimizer"(callsite("step"("cerebras_pytorch/optim/AdamBase.py":128:0) at callsite("decorate_context"("torch/utils/_contextlib.py":115:0) at callsite("wrapper"("torch/optim/optimizer.py":280:0) at callsite("wrapper"("torch/optim/lr_scheduler.py":69:0) at callsite("wrapped_optimizer_step"("cerebras_pytorch/backend/base_backend.py":473:0) at callsite("training_step"("train.py":119:0) at callsite("generated_trace_fn"("cerebras_pytorch/core/compile.py":139:0) at callsite("main"("train.py":161:0) at "<module>"("train.py":170:0)))))))))))
#loc336 = loc("optimizer"(callsite("wrapper"("cerebras_pytorch/amp/wrap.py":94:0) at callsite("step"("cerebras_pytorch/optim/AdamBase.py":130:0) at callsite("decorate_context"("torch/utils/_contextlib.py":115:0) at callsite("wrapper"("torch/optim/optimizer.py":280:0) at callsite("wrapper"("torch/optim/lr_scheduler.py":69:0) at callsite("wrapped_optimizer_step"("cerebras_pytorch/backend/base_backend.py":473:0) at callsite("training_step"("train.py":119:0) at callsite("generated_trace_fn"("cerebras_pytorch/core/compile.py":139:0) at callsite("main"("train.py":161:0) at "<module>"("train.py":170:0))))))))))))
#loc337 = loc("optimizer"(callsite("wrapper"("cerebras_pytorch/amp/wrap.py":94:0) at callsite("step"("cerebras_pytorch/optim/AdamBase.py":139:0) at callsite("decorate_context"("torch/utils/_contextlib.py":115:0) at callsite("wrapper"("torch/optim/optimizer.py":280:0) at callsite("wrapper"("torch/optim/lr_scheduler.py":69:0) at callsite("wrapped_optimizer_step"("cerebras_pytorch/backend/base_backend.py":473:0) at callsite("training_step"("train.py":119:0) at callsite("generated_trace_fn"("cerebras_pytorch/core/compile.py":139:0) at callsite("main"("train.py":161:0) at "<module>"("train.py":170:0))))))))))))
#loc338 = loc("optimizer"(callsite("wrapper"("cerebras_pytorch/amp/wrap.py":94:0) at callsite("step"("cerebras_pytorch/optim/AdamBase.py":151:0) at callsite("decorate_context"("torch/utils/_contextlib.py":115:0) at callsite("wrapper"("torch/optim/optimizer.py":280:0) at callsite("wrapper"("torch/optim/lr_scheduler.py":69:0) at callsite("wrapped_optimizer_step"("cerebras_pytorch/backend/base_backend.py":473:0) at callsite("training_step"("train.py":119:0) at callsite("generated_trace_fn"("cerebras_pytorch/core/compile.py":139:0) at callsite("main"("train.py":161:0) at "<module>"("train.py":170:0))))))))))))
#loc339 = loc("optimizer"(callsite("step"("cerebras_pytorch/optim/AdamBase.py":154:0) at callsite("decorate_context"("torch/utils/_contextlib.py":115:0) at callsite("wrapper"("torch/optim/optimizer.py":280:0) at callsite("wrapper"("torch/optim/lr_scheduler.py":69:0) at callsite("wrapped_optimizer_step"("cerebras_pytorch/backend/base_backend.py":473:0) at callsite("training_step"("train.py":119:0) at callsite("generated_trace_fn"("cerebras_pytorch/core/compile.py":139:0) at callsite("main"("train.py":161:0) at "<module>"("train.py":170:0)))))))))))
#loc340 = loc("wte.bwd"(callsite("wrapper"("cerebras_pytorch/amp/wrap.py":94:0) at callsite("increment_last_epoch"("cerebras_pytorch/optim/lr_scheduler.py":121:0) at callsite("increment_last_epoch"("cerebras_pytorch/optim/lr_scheduler.py":522:0) at callsite("step"("cerebras_pytorch/optim/lr_scheduler.py":129:0) at callsite("training_step"("train.py":120:0) at callsite("generated_trace_fn"("cerebras_pytorch/core/compile.py":139:0) at callsite("main"("train.py":161:0) at "<module>"("train.py":170:0))))))))))
#loc341 = loc("wte.bwd"(callsite("wrapper"("cerebras_pytorch/amp/wrap.py":94:0) at callsite("increment_last_epoch"("cerebras_pytorch/optim/lr_scheduler.py":528:0) at callsite("step"("cerebras_pytorch/optim/lr_scheduler.py":129:0) at callsite("training_step"("train.py":120:0) at callsite("generated_trace_fn"("cerebras_pytorch/core/compile.py":139:0) at callsite("main"("train.py":161:0) at "<module>"("train.py":170:0)))))))))
#loc342 = loc("wte.bwd"(callsite("wrapper"("cerebras_pytorch/amp/wrap.py":94:0) at callsite("increment_last_epoch"("cerebras_pytorch/optim/lr_scheduler.py":532:0) at callsite("step"("cerebras_pytorch/optim/lr_scheduler.py":129:0) at callsite("training_step"("train.py":120:0) at callsite("generated_trace_fn"("cerebras_pytorch/core/compile.py":139:0) at callsite("main"("train.py":161:0) at "<module>"("train.py":170:0)))))))))
#loc343 = loc("wte.bwd"(callsite("increment_last_epoch"("cerebras_pytorch/optim/lr_scheduler.py":531:0) at callsite("step"("cerebras_pytorch/optim/lr_scheduler.py":129:0) at callsite("training_step"("train.py":120:0) at callsite("generated_trace_fn"("cerebras_pytorch/core/compile.py":139:0) at callsite("main"("train.py":161:0) at "<module>"("train.py":170:0))))))))
#loc344 = loc("wte.bwd"(callsite("wrapper"("cerebras_pytorch/amp/wrap.py":94:0) at callsite("increment_last_epoch"("cerebras_pytorch/optim/lr_scheduler.py":531:0) at callsite("step"("cerebras_pytorch/optim/lr_scheduler.py":129:0) at callsite("training_step"("train.py":120:0) at callsite("generated_trace_fn"("cerebras_pytorch/core/compile.py":139:0) at callsite("main"("train.py":161:0) at "<module>"("train.py":170:0)))))))))
#loc345 = loc("wte.bwd"(callsite("_get_closed_form_lr"("cerebras_pytorch/optim/lr_scheduler.py":429:0) at callsite("_get_closed_form_lr"("cerebras_pytorch/optim/lr_scheduler.py":515:0) at callsite("get_lr"("cerebras_pytorch/optim/lr_scheduler.py":77:0) at callsite("update_last_lr"("cerebras_pytorch/optim/lr_scheduler.py":143:0) at callsite("step"("cerebras_pytorch/optim/lr_scheduler.py":138:0) at callsite("training_step"("train.py":120:0) at callsite("generated_trace_fn"("cerebras_pytorch/core/compile.py":139:0) at callsite("main"("train.py":161:0) at "<module>"("train.py":170:0)))))))))))
#loc346 = loc("wte.bwd"(callsite("wrapper"("cerebras_pytorch/amp/wrap.py":94:0) at callsite("_get_closed_form_lr"("cerebras_pytorch/optim/lr_scheduler.py":437:0) at callsite("_get_closed_form_lr"("cerebras_pytorch/optim/lr_scheduler.py":515:0) at callsite("get_lr"("cerebras_pytorch/optim/lr_scheduler.py":77:0) at callsite("update_last_lr"("cerebras_pytorch/optim/lr_scheduler.py":143:0) at callsite("step"("cerebras_pytorch/optim/lr_scheduler.py":138:0) at callsite("training_step"("train.py":120:0) at callsite("generated_trace_fn"("cerebras_pytorch/core/compile.py":139:0) at callsite("main"("train.py":161:0) at "<module>"("train.py":170:0))))))))))))
#loc347 = loc("wte.bwd"(callsite("_get_closed_form_lr"("cerebras_pytorch/optim/lr_scheduler.py":437:0) at callsite("_get_closed_form_lr"("cerebras_pytorch/optim/lr_scheduler.py":515:0) at callsite("get_lr"("cerebras_pytorch/optim/lr_scheduler.py":77:0) at callsite("update_last_lr"("cerebras_pytorch/optim/lr_scheduler.py":143:0) at callsite("step"("cerebras_pytorch/optim/lr_scheduler.py":138:0) at callsite("training_step"("train.py":120:0) at callsite("generated_trace_fn"("cerebras_pytorch/core/compile.py":139:0) at callsite("main"("train.py":161:0) at "<module>"("train.py":170:0)))))))))))
#loc348 = loc("wte.bwd"(callsite("wrapper"("cerebras_pytorch/amp/wrap.py":94:0) at callsite("_get_closed_form_lr"("cerebras_pytorch/optim/lr_scheduler.py":439:0) at callsite("_get_closed_form_lr"("cerebras_pytorch/optim/lr_scheduler.py":515:0) at callsite("get_lr"("cerebras_pytorch/optim/lr_scheduler.py":77:0) at callsite("update_last_lr"("cerebras_pytorch/optim/lr_scheduler.py":143:0) at callsite("step"("cerebras_pytorch/optim/lr_scheduler.py":138:0) at callsite("training_step"("train.py":120:0) at callsite("generated_trace_fn"("cerebras_pytorch/core/compile.py":139:0) at callsite("main"("train.py":161:0) at "<module>"("train.py":170:0))))))))))))
#loc349 = loc("wte.bwd"(callsite("wrapper"("cerebras_pytorch/amp/wrap.py":94:0) at callsite("_get_closed_form_lr"("cerebras_pytorch/optim/lr_scheduler.py":238:0) at callsite("_get_closed_form_lr"("cerebras_pytorch/optim/lr_scheduler.py":506:0) at callsite("get_lr"("cerebras_pytorch/optim/lr_scheduler.py":77:0) at callsite("update_last_lr"("cerebras_pytorch/optim/lr_scheduler.py":143:0) at callsite("step"("cerebras_pytorch/optim/lr_scheduler.py":138:0) at callsite("training_step"("train.py":120:0) at callsite("generated_trace_fn"("cerebras_pytorch/core/compile.py":139:0) at callsite("main"("train.py":161:0) at "<module>"("train.py":170:0))))))))))))
#loc350 = loc("wte.bwd"(callsite("_get_closed_form_lr"("cerebras_pytorch/optim/lr_scheduler.py":236:0) at callsite("_get_closed_form_lr"("cerebras_pytorch/optim/lr_scheduler.py":506:0) at callsite("get_lr"("cerebras_pytorch/optim/lr_scheduler.py":77:0) at callsite("update_last_lr"("cerebras_pytorch/optim/lr_scheduler.py":143:0) at callsite("step"("cerebras_pytorch/optim/lr_scheduler.py":138:0) at callsite("training_step"("train.py":120:0) at callsite("generated_trace_fn"("cerebras_pytorch/core/compile.py":139:0) at callsite("main"("train.py":161:0) at "<module>"("train.py":170:0)))))))))))
#loc351 = loc("wte.bwd"(callsite("wrapper"("cerebras_pytorch/amp/wrap.py":94:0) at callsite("_get_closed_form_lr"("cerebras_pytorch/optim/lr_scheduler.py":236:0) at callsite("_get_closed_form_lr"("cerebras_pytorch/optim/lr_scheduler.py":506:0) at callsite("get_lr"("cerebras_pytorch/optim/lr_scheduler.py":77:0) at callsite("update_last_lr"("cerebras_pytorch/optim/lr_scheduler.py":143:0) at callsite("step"("cerebras_pytorch/optim/lr_scheduler.py":138:0) at callsite("training_step"("train.py":120:0) at callsite("generated_trace_fn"("cerebras_pytorch/core/compile.py":139:0) at callsite("main"("train.py":161:0) at "<module>"("train.py":170:0))))))))))))
#loc352 = loc("wte.bwd"(callsite("wrapper"("cerebras_pytorch/amp/wrap.py":94:0) at callsite("_get_closed_form_lr"("cerebras_pytorch/optim/lr_scheduler.py":232:0) at callsite("_get_closed_form_lr"("cerebras_pytorch/optim/lr_scheduler.py":506:0) at callsite("get_lr"("cerebras_pytorch/optim/lr_scheduler.py":77:0) at callsite("update_last_lr"("cerebras_pytorch/optim/lr_scheduler.py":143:0) at callsite("step"("cerebras_pytorch/optim/lr_scheduler.py":138:0) at callsite("training_step"("train.py":120:0) at callsite("generated_trace_fn"("cerebras_pytorch/core/compile.py":139:0) at callsite("main"("train.py":161:0) at "<module>"("train.py":170:0))))))))))))
#loc353 = loc("wte.bwd"(callsite("_get_closed_form_lr"("cerebras_pytorch/optim/lr_scheduler.py":231:0) at callsite("_get_closed_form_lr"("cerebras_pytorch/optim/lr_scheduler.py":506:0) at callsite("get_lr"("cerebras_pytorch/optim/lr_scheduler.py":77:0) at callsite("update_last_lr"("cerebras_pytorch/optim/lr_scheduler.py":143:0) at callsite("step"("cerebras_pytorch/optim/lr_scheduler.py":138:0) at callsite("training_step"("train.py":120:0) at callsite("generated_trace_fn"("cerebras_pytorch/core/compile.py":139:0) at callsite("main"("train.py":161:0) at "<module>"("train.py":170:0)))))))))))
#loc354 = loc("wte.bwd"(callsite("wrapper"("cerebras_pytorch/amp/wrap.py":94:0) at callsite("_get_closed_form_lr"("cerebras_pytorch/optim/lr_scheduler.py":513:0) at callsite("get_lr"("cerebras_pytorch/optim/lr_scheduler.py":77:0) at callsite("update_last_lr"("cerebras_pytorch/optim/lr_scheduler.py":143:0) at callsite("step"("cerebras_pytorch/optim/lr_scheduler.py":138:0) at callsite("training_step"("train.py":120:0) at callsite("generated_trace_fn"("cerebras_pytorch/core/compile.py":139:0) at callsite("main"("train.py":161:0) at "<module>"("train.py":170:0)))))))))))
#loc355 = loc("wte.bwd"(callsite("_get_closed_form_lr"("cerebras_pytorch/optim/lr_scheduler.py":512:0) at callsite("get_lr"("cerebras_pytorch/optim/lr_scheduler.py":77:0) at callsite("update_last_lr"("cerebras_pytorch/optim/lr_scheduler.py":143:0) at callsite("step"("cerebras_pytorch/optim/lr_scheduler.py":138:0) at callsite("training_step"("train.py":120:0) at callsite("generated_trace_fn"("cerebras_pytorch/core/compile.py":139:0) at callsite("main"("train.py":161:0) at "<module>"("train.py":170:0))))))))))
#loc356 = loc(callsite("wrapper"("cerebras_pytorch/amp/wrap.py":62:0) at callsite("forward"("model.py":179:0) at callsite("_call_impl"("torch/nn/modules/module.py":1538:0) at callsite("forward"("cerebras_pytorch/backend/base_backend.py":412:0) at callsite("compiled_forward"("cerebras_pytorch/core/compile.py":81:0) at callsite("training_step"("train.py":116:0) at callsite("generated_trace_fn"("cerebras_pytorch/core/compile.py":139:0) at callsite("main"("train.py":161:0) at "<module>"("train.py":170:0))))))))))
#loc357 = loc(callsite("wrapper"("cerebras_pytorch/amp/wrap.py":94:0) at callsite("forward"("model.py":179:0) at callsite("_call_impl"("torch/nn/modules/module.py":1538:0) at callsite("forward"("cerebras_pytorch/backend/base_backend.py":412:0) at callsite("compiled_forward"("cerebras_pytorch/core/compile.py":81:0) at callsite("training_step"("train.py":116:0) at callsite("generated_trace_fn"("cerebras_pytorch/core/compile.py":139:0) at callsite("main"("train.py":161:0) at "<module>"("train.py":170:0))))))))))
#loc358 = loc(callsite("forward"("model.py":180:0) at callsite("_call_impl"("torch/nn/modules/module.py":1538:0) at callsite("forward"("cerebras_pytorch/backend/base_backend.py":412:0) at callsite("compiled_forward"("cerebras_pytorch/core/compile.py":81:0) at callsite("training_step"("train.py":116:0) at callsite("generated_trace_fn"("cerebras_pytorch/core/compile.py":139:0) at callsite("main"("train.py":161:0) at "<module>"("train.py":170:0)))))))))

